StockPredictor/bj430017_daily_data_2023-05-31_2024-11-29_20250403.pth (torch, 210241 bytes, 10 tensors)

lstm.weight_ih_l0 f4 [256, 5]
000000 52 21 10 3d a5 b2 91 3d 73 56 a9 3d 09 65 06 3e
       0.035188027 0.07114152 0.08268442 0.1312448
000010 b8 c1 2f 3d ec e1 7f 3c 83 86 90 bd 56 ae 0f 3e
       0.042909354 0.015617829 -0.07056906 0.14031348
000020 a1 c5 f8 3c a5 5c 3e 3d cb 91 bf bc 23 04 b6 bc
       0.030367674 0.04647507 -0.02338495 -0.02221877
000030 07 c4 bd 3d e4 2f 01 bd c3 eb de 3d e7 ca 8a bd
       0.09265905 -0.031539813 0.10884812 -0.06776982
000040 d5 ec 5a bd b7 79 af bd 04 f7 ef bd 43 59 89 3d
       -0.053448517 -0.08568137 -0.11717036 0.067064784
000050 4c 92 cb bd 03 95 b2 bd b2 aa 8c 3d ea 0b db bd
       -0.09940013 -0.08719828 0.06868495 -0.10695632
000060 ef 51 e1 3c 33 ac df bc dc 7c bf bd bd dc f3 bd
       0.02750489 -0.02730379 -0.09349987 -0.11907337
000070 1d 71 12 3c 27 f7 01 be c3 66 a7 3d 52 bf 0a 3e
       0.008938101 -0.12691937 0.08173897 0.13549545
000080 6b 72 09 bd d0 a7 8e 3d 2d 85 72 bc 65 c7 fd 3c
       -0.033556383 0.069656014 -0.014802259 0.030978868
000090 ae 0d 0e be b8 cc 8f bd 72 4a 65 bd 7f 38 12 be
       -0.13872406 -0.07021469 -0.0559792 -0.14279364
0000a0 04 83 f8 3c 38 8c 82 bd b9 6b 29 3b 11 fb 4c bd
       0.03033591 -0.06374401 0.0025851561 -0.050044123
0000b0 15 df f7 bc 84 94 e1 3d 11 d8 16 3e 0e 45 ce 3d
       -0.030257741 0.11014655 0.1473086 0.10071765
0000c0 92 88 fd 3d 71 e9 a3 3d 66 30 44 3b 46 b6 66 bd
       0.12379564 0.0800351 0.0029936074 -0.056326173
0000d0 c1 8b da 3d d8 61 4d 3d 9f 06 f8 3d 71 65 da 3d
       0.10671187 0.05014214 0.12110638 0.1066388
0000e0 23 77 44 3d 0d 93 b2 bd 29 19 0b 3c df 98 50 3d
       0.04796518 -0.08719454 0.008489885 0.05092704
0000f0 b2 bc 8c 3d 48 16 d9 bd da 4b d2 3c 99 71 6b bd
       0.06871928 -0.10599953 0.025670934 -0.057481382
000100 65 eb 11 bd b6 83 a5 3d 42 cb 71 bd 8a 57 e7 3c
       -0.03562488 0.080817625 -0.059031732 0.028239984
000110 b7 d2 bd 3d d3 a9 c5 3d 32 56 32 bd 27 25 d5 bc
       0.09268706 0.09651532 -0.043539234 -0.026018692
000120 40 25 93 3d ea 96 76 3d 86 61 67 bc 52 ab 33 bd
       0.07184839 0.060202517 -0.0141223725 -0.043864556
000130 1f 35 18 3e eb b8 03 3e 35 9f 07 3d 23 63 c5 bd
       0.14864014 0.1286351 0.033110816 -0.096380495
000140 b2 42 f1 bd 32 8d 62 3c 02 20 90 bd 4c 7c d1 bd
       -0.11780299 0.013827609 -0.07037355 -0.10228786
000150 bc 2b b8 bd 92 4a fd 3c 07 95 bb 3c 80 c3 ac 3d
       -0.08992717 0.030919347 0.02289821 0.08435726
000160 e7 50 42 bd de 65 00 bd d5 2e 45 3d b2 07 c1 bc
       -0.047440436 -0.031347148 0.048140366 -0.02356324
000170 81 18 b6 bd 55 91 50 bd 7c b4 57 3d fc f9 93 bd
       -0.088913925 -0.05091985 0.052662358 -0.07225415
000180 09 79 83 3d 16 38 ad 3b 41 ce b0 3d 21 bd c6 3d
       0.0641957 0.005286227 0.0863309 0.09704042
000190 1b 3f 91 bc f0 27 10 3c 84 cb c4 bd 2e 58 fa 3d
       -0.017730286 0.008798584 -0.0960913 0.1222385
0001a0 bb 05 cf bc 20 17 7b bb ce 16 3c bd bf af 8b 3d
       -0.025271287 -0.0038313344 -0.045920186 0.0682063
0001b0 fa 9c af bd 43 3d 31 3d a3 4e 78 bc 05 90 58 3d
       -0.08574863 0.043271314 -0.015155467 0.052871723
0001c0 d6 b5 c7 3c 51 0a d7 3d 17 f0 76 bd cd 88 7f 3d
       0.024378698 0.105000146 -0.06028756 0.062386323
0001d0 d6 70 c1 bd ff 95 d1 bd d1 c3 8d 3d 26 69 2e 3d
       -0.0944535 -0.102336876 0.06922115 0.042580746
0001e0 87 39 0c 3e 56 cc 07 3d 7c 6f be 3d 23 3e 1b 3c
       0.1369382 0.033153854 0.09298608 0.009475264
0001f0 5c 0d 3f 3d a3 da ac bc d9 c4 9d bd 45 81 97 bd
       0.0466436 -0.021100348 -0.07703561 -0.07397703
000200 25 4d c6 3d 5b 81 04 3d 8e a8 80 bd 12 7c cf bd
       0.09682683 0.032349925 -0.06282149 -0.101310864
000210 3f 0c 09 3e 70 8c c5 3d 00 b5 03 3e 25 02 e9 bc
       0.13383578 0.09645927 0.12862015 -0.028443405
000220 c9 7b dc bd c3 9e 09 3d 11 35 ee bc 43 e4 46 3d
       -0.10765798 0.033598673 -0.029078038 0.04855753
000230 99 ca 21 3d 6c de df 3c 79 f5 b6 bc 97 32 68 bd
       0.039499853 0.027327739 -0.022333847 -0.05668887
000240 77 a6 6a bd ad 10 67 bd 6c 26 8a 3d 40 6c b8 3d
       -0.05728766 -0.056412388 0.0674561 0.09005022
000250 4b 74 1a ba dc 08 0d 3e fa 85 6c bc 24 97 cb 3d
       -0.0005891963 0.13772911 -0.014436239 0.09940937
000260 f3 6d 33 3c d1 54 dc bb da ef ea bc 5c 9e 0f 3d
       0.010951507 -0.006723978 -0.028678823 0.035063133
000270 c8 5f b5 bd 3c 2a c6 3c b0 d4 15 3d 2d 74 f7 3c
       -0.088561594 0.02419006 0.036579788 0.030206764
000280 d4 0b ba 3d 98 37 de bc ec 0f 04 bd 76 eb 85 bd
       0.09084287 -0.027126119 -0.032241747 -0.06539051
000290 43 ac cd 3d 50 3b 15 3e 1e 2b f6 3d 8b 4b e8 3d
       0.10042622 0.14573407 0.12019943 0.11342534
0002a0 ed 10 d1 bd 96 37 8c 3d 9c 2b 8e bd 85 33 d4 3d
       -0.102083065 0.0684654 -0.069419116 0.10361389
0002b0 13 00 cb 3d b5 31 3d 3b 7e 67 43 3a 25 17 c4 bc
       0.099121235 0.002886874 0.0007454081 -0.023936817
0002c0 10 6d 08 3e e6 ce 5f 3c 6b 1f 0d 3e a4 08 bf 3d
       0.13322854 0.013660168 0.13781516 0.0932782
0002d0 58 01 83 3d 7e bf 9a 3d 14 45 c7 3d 15 6a dc 3d
       0.06396741 0.075560555 0.097299725 0.10762421
0002e0 35 d5 a5 3c 9b 14 46 bc ba 9a a7 3c 87 08 35 bd
       0.020243267 -0.012089874 0.020459522 -0.044197585
0002f0 5d ea 89 3c 6d e2 a6 bd 63 62 98 bc cd 8b a7 3d
       0.016835386 -0.08148656 -0.018601602 0.08180962
000300 10 f5 6b 3d 4b a1 a3 3d fe 94 08 3e 3c 5e f5 3c
       0.057606757 0.079897486 0.13338086 0.029952161
000310 48 aa 92 bd ca b4 11 bc dc 61 35 bd dc 09 e4 3d
       -0.07161385 -0.008893201 -0.04428278 0.11134693
000320 11 b0 3d 3c 2e 5b c5 3d cf 33 be 3d 17 5d 9e bd
       0.011577622 0.09636532 0.092872255 -0.07732599
000330 e4 63 0d 3e be 41 65 bd 88 22 a6 bc 7a 61 0e 3e
       0.13807636 -0.0559709 -0.020280138 0.13904372
000340 39 8b d2 3d 21 37 b2 bd 90 11 38 3c f0 64 a6 ba
       0.10280461 -0.08701921 0.011234656 -0.0012694877
000350 a1 73 2c bc 95 6b f4 3d 09 6d 32 3d f2 0a 72 bc
       -0.010525615 0.11934582 0.043561015 -0.014773117
000360 35 df 12 3e 0e 8c a7 3d 86 27 a9 bd 68 c5 00 3d
       0.14342959 0.0818101 -0.082594916 0.03143826
000370 c5 82 b3 3d db 9a ac bd f4 e9 a6 3c 81 b0 d7 3d
       0.08765177 -0.08427974 0.02037523 0.10531712
000380 b0 80 af bd 81 51 0e 3d 31 41 6b bd 2a 74 a1 3d
       -0.08569467 0.034745697 -0.05743522 0.07883485
000390 14 e9 59 3d 3f fa a1 bc 8f 28 84 3d fa 75 aa 3d
       0.053200796 -0.019772647 0.064530484 0.083232835
0003a0 7d 5e 9a 3d e2 99 5b bc 9f c5 97 3c c9 b6 66 bc
       0.075375535 -0.013403388 0.01852685 -0.014081665
0003b0 90 5f 9b 3d 74 6b 86 3d db 70 f6 3d 1e 80 d6 bc
       0.075865865 0.06563464 0.12033244 -0.026184138
0003c0 9c d4 83 3d 83 72 eb 3d 7e 39 42 3d a8 4f 0e 3e
       0.064370364 0.11496451 0.04741811 0.13897574
0003d0 4e 74 c0 bd 38 6d 19 39 69 1c 7b 3d c7 b2 a7 3d
       -0.09397183 0.00014631904 0.06130639 0.08188396
0003e0 b6 c6 52 3d da 25 18 3d b4 a9 cd 3d ac 8b 96 3d
       0.051459037 0.037145473 0.10042134 0.07350859
0003f0 89 ab 18 bd 4d a6 8f bd a5 27 6d bc 95 28 e2 bc
       -0.037272964 -0.07014141 -0.014474784 -0.027607242

lstm.weight_hh_l0 f4 [256, 64]
000000 51 55 81 ba 75 5c 30 3c 36 41 8b 3d 34 67 a5 3d
       -0.0009867345 0.010764231 0.067995474 0.08076325
000010 d3 11 a5 bc 13 4c 24 3d 00 66 ab 3d 37 6f aa bc
       -0.0201501 0.040111613 0.08369064 -0.020804984
000020 39 05 25 3c 31 ed 11 3c 90 2c b0 bd 68 dd 0a 3d
       0.010072046 0.0089066485 -0.086022496 0.033902556
000030 12 12 c4 bd 53 df 98 3c ca 1e 12 be a9 f2 1f bd
       -0.09573759 0.018661177 -0.14269558 -0.039049778
000040 93 ac d4 bc cf f7 82 bd c9 1b c7 bd 4e 39 85 bd
       -0.025961196 -0.06394922 -0.097220965 -0.065050706
000050 d9 34 88 bc 7d 34 66 bd 6d e0 ac bd 43 18 fc 3c
       -0.016626762 -0.0562024 -0.08441243 0.030773288
000060 75 e3 19 3b 78 93 c4 bd 3e ae b7 3d b5 07 0c 3e
       0.0023481522 -0.0959844 0.08968781 0.13674815
000070 0c 6f 87 3c d0 fb c8 3d 7b b0 9c bb d4 fd 86 bd
       0.016532443 0.098136544 -0.0047817803 -0.065913826
000080 50 05 fe bd f4 61 8b 3d db 28 c4 bd 38 71 e4 bc
       -0.12403357 0.068057925 -0.09578105 -0.027886018
000090 c4 8d 81 3d 4b 92 04 3e f3 ec 0c 3e 4d 4e c7 bd
       0.06325868 0.12946431 0.13762264 -0.097317316
0000a0 69 e3 15 3d a8 33 53 bd 75 cc 65 3d 6b f3 b7 bd
       0.03659383 -0.051562935 0.05610319 -0.08981975
0000b0 a6 be 87 3d ac 71 03 bd f4 88 05 bd ff d8 0d 3c
       0.0662816 -0.032090828 -0.03260131 0.008657693
0000c0 7f 41 a4 bd a3 49 05 bd 4a 56 c5 bd 13 15 c0 3d
       -0.08020305 -0.03254093 -0.09635599 0.093790196
0000d0 ff 53 fe bb 6a d3 d0 3c 69 1a 87 3d ce 1f 9b 3d
       -0.007761478 0.025491435 0.06596834 0.07574426
0000e0 1d a7 2b 3d fc 54 90 3c a9 99 10 3d b5 6d e2 3d
       0.04190742 0.017618649 0.03530279 0.11056081
0000f0 af 49 78 3d 5b 52 5b bd 8e b3 d8 bd c7 b8 9f 3c
       0.060617145 -0.053545337 -0.10581122 0.019497288
000100 fd 26 9c bd 16 6d 79 3d aa 47 b2 3c 8d bf 8a bd
       -0.07624624 0.060895048 0.021762688 -0.06774817
000110 29 a5 89 3c a4 5a 7b bc c3 d1 41 3d 23 51 96 bd
       0.016802387 -0.015341435 0.047319185 -0.07339694
000120 5c 4f d2 bd a6 20 ca bd a2 d4 e7 3c c1 fa 85 bd
       -0.10269043 -0.098695084 0.028299633 -0.06541968
000130 a8 cf 2b bd a8 d4 f9 3d 81 4f 86 3d 20 92 7e bb
       -0.041946083 0.12198764 0.06558133 -0.0038844422
000140 54 72 9a 3d a4 64 c5 3d 5f 8d 4a 3d 8a 4d b5 3d
       0.075413376 0.09638336 0.04945123 0.0885268
000150 65 23 63 3d 9c 12 b4 bd 53 3b 6e bd 91 41 6d 3d
       0.055453677 -0.08792612 -0.058162045 0.057923857
000160 50 3a af bc b7 7c ba bd a1 f1 14 3d 12 55 d5 3b
       -0.02139011 -0.09105819 0.036363248 0.0065103853
000170 c7 e1 36 3c 6f 3f 5a bb 58 dd de bb c0 5c aa 3d
       0.011162228 -0.003330197 -0.0068012886 0.08318472
000180 c6 ab 76 bc 5c 12 d2 3c ff 35 d0 bd d8 45 cb 3d
       -0.015055602 0.02564352 -0.10166549 0.09925431
000190 5d 71 0d be 86 62 7b bc c4 cd 68 bd 60 8b 92 3d
       -0.13812776 -0.015343314 -0.05683686 0.0715549
0001a0 45 d6 00 3d 3a 38 8b 3d f5 ce 9d 3d 6a 48 67 bc
       0.031454343 0.06797834 0.077054895 -0.014116386
0001b0 d8 2c 9b bd 29 3f 14 3d ce 4e 94 bd 25 fb c1 bd
       -0.07576913 0.036193047 -0.07241593 -0.0947173
0001c0 f5 4d 0d bd ab cf b8 bd 5c 56 4f 3d 8d f1 18 ba
       -0.034498174 -0.090239845 0.050619468 -0.0005834334
0001d0 04 56 73 bd 89 a5 e4 bd 97 9b 74 3c 06 9c 5a 3b
       -0.059408203 -0.11164386 0.014929674 0.0033357157
0001e0 49 80 36 bd 3a e0 cf 3d 50 df f7 bc 8a ed de bd
       -0.044555936 0.1015019 -0.03025785 -0.10885151
0001f0 dc f8 4a 3c 34 36 98 bd f1 ef ef bd aa 29 9b bd
       0.012388434 -0.074322134 -0.11715687 -0.07576306
000200 59 23 61 bd c0 c3 a1 bd 95 ff 48 bd fc 73 00 be
       -0.05496535 -0.078986645 -0.049071867 -0.12544245
000210 24 13 30 3d 5b 0d a7 3d f5 59 a8 bd 08 f6 ab bd
       0.042987004 0.08156844 -0.08220283 -0.08396536
000220 6a b5 af 3d 2c 3d 30 bd 4f 4e 03 3e 66 18 7c 3d
       0.08579524 -0.043027088 0.12822841 0.061546706
000230 9b 90 8a bd 9d 18 d8 3d 64 31 c0 bc 6b f8 e0 bb
       -0.067658626 0.105515696 -0.023461051 -0.006865551
000240 6b 3f 9b bd c6 4a ee bd d4 05 a8 3d 84 69 6b 3d
       -0.075804554 -0.11635356 0.082042366 0.057473674
000250 5a ab 74 3d 81 64 da 3d 9e bb fc 3c 38 8e eb bd
       0.059733726 0.10663701 0.030851182 -0.115017354
000260 7e 35 92 3d c6 04 33 bd 32 5a d5 3d 1d b1 cb bd
       0.07139109 -0.043705724 0.10417594 -0.09945891
000270 90 aa 07 be c8 e1 a7 3d a6 1c 14 bd 78 bb 9c 3d
       -0.13248658 0.08197361 -0.036160134 0.07652944
000280 19 02 0b be 95 4d 48 3d 1a c0 60 3d e7 fa 64 bd
       -0.13575019 0.048902113 0.054870702 -0.05590334
000290 3f 7f d0 bd 9c 08 83 3c c8 9a 0f bd 60 81 b1 3d
       -0.1018052 0.015995316 -0.03505972 0.086672544
0002a0 cf 0c 73 3d c0 eb 98 3d f9 be e5 bd eb 3d 0f 3e
       0.059338387 0.07466841 -0.11218066 0.13988464
0002b0 8e fb e0 bd 01 ac eb 3d 54 21 14 3d 39 4b eb 3c
       -0.1098548 0.115074165 0.036164597 0.028722392
0002c0 0f 6c a4 bd 9c 34 30 bd 6c ee 89 bd b7 d7 1c bd
       -0.08028423 -0.043018922 -0.067349285 -0.03829166
0002d0 2b f9 31 bd 6f 00 c2 3d 2e d1 b2 bd 78 01 91 bc
       -0.043450516 0.09472739 -0.08731304 -0.017700896
0002e0 2d e1 80 bc 89 9e 15 3d 2c 83 5f bd 9b ab c2 3c
       -0.015732372 0.036528144 -0.054568455 0.023763468
0002f0 0e 95 8f bc 4c ab e7 3d 3f a7 05 be d8 62 7a 3d
       -0.01752713 0.11311969 -0.1305208 0.06112942
000300 df dd cd bb e1 c8 3e 3d c2 24 d8 3d 66 58 b5 3c
       -0.0062825526 0.04657829 0.10553886 0.022136878
000310 d5 15 a0 3d 4d c7 ad bd 17 88 e6 3d ef eb 84 3d
       0.07816664 -0.08485279 0.11256426 0.06490313
000320 b9 c1 bd 3d be 6b 2e 3d 1e 9e 2a bc d8 6d 9d bd
       0.09265465 0.04258322 -0.010413675 -0.07686967
000330 4e bb 97 3c ab 67 a5 3d 6d 07 d2 3d 50 dc e6 3d
       0.018521931 0.08076414 0.102553226 0.1127249
000340 3c 58 2c 3d ac 20 98 3d da 29 ae 3d 33 1b d8 3d
       0.042076334 0.07428107 0.08504076 0.10552063
000350 81 c7 9a bd f6 cc 93 3c ec 84 cd 3d d9 2b 88 3c
       -0.075575836 0.018042069 0.100351185 0.01662247
000360 c9 c4 3b bd 37 9f 45 3b 22 ec d4 bc 43 44 a0 3c
       -0.045841966 0.0030154714 -0.025991503 0.0195638
000370 9f 6d de bc b6 68 45 3c d8 80 2c 3c ee e6 fe 3d
       -0.02715188 0.012048891 0.010528766 0.1244639
000380 60 7d 8b 3d 71 bf 48 bd a5 ac 12 3c e0 c0 a7 3d
       0.06811023 -0.049010698 0.0089522945 0.08191085
000390 2e bf d2 bd bf 24 07 3d e4 20 ba 3d 45 9b 1b 3d
       -0.10290371 0.03299403 0.09088305 0.037989873
0003a0 1a 93 c9 bd 6b 47 30 bd 40 6a 9b 3c 12 75 fb 3c
       -0.098425105 -0.04303686 0.018971562 0.030695472
0003b0 01 2b f1 bd 64 62 2e bd d9 08 aa bd 56 43 9b bd
       -0.117757805 -0.0425743 -0.08302469 -0.07581203
0003c0 1d 5f e6 3c 1a ac 99 bd 94 53 36 3d b5 e2 1f 3d
       0.028121525 -0.07503529 0.0445133 0.039034564
0003d0 64 2f d7 3d 78 64 60 3b 0c 8c cf bd 5b 21 d6 3d
       0.10507086 0.0034239572 -0.10134134 0.10455581
0003e0 5c 3d 87 3d 8a e9 5f bd 60 ae 56 3d e8 49 97 3d
       0.066035 -0.05466608 0.05241239 0.073871434
0003f0 8e f5 ec 3d f6 a5 20 3d e7 37 e8 bd 5f 7e ba bd
       0.11570273 0.039220773 -0.113387875 -0.091061346

lstm.bias_ih_l0 f4 [256]
000000 b8 52 97 bd 07 dd 73 bc 78 3b f2 3d 11 4e dd 3d
       -0.07388824 -0.01488424 0.11827749 0.108059056
000010 4f 22 68 3d 08 b9 4f 3d 06 93 d2 3d 31 35 2c bd
       0.056673344 0.05071357 0.10281949 -0.042042915
000020 96 57 c3 bd 9b d1 b2 bd 9e 99 93 3d b7 48 45 3b
       -0.0953819 -0.08731385 0.072070345 0.0030103156
000030 e7 20 69 bb ef 5e 10 3d 29 38 8a bd f3 b5 60 ba
       -0.003557259 0.035246786 -0.06748993 -0.00085720344
000040 5a 5f 9a 3d 19 30 39 bc 81 60 82 3c 07 a0 40 3d
       0.07537718 -0.011302971 0.015915157 0.047027614
000050 de e5 47 bd 51 9b c4 bd ea ac 72 bc 72 5c 06 3e
       -0.048803203 -0.09599937 -0.014811734 0.13121203
000060 6b a5 ab 3c 42 99 01 3e 36 db af bd 9b 3d 8f bb
       0.0209529 0.1265612 -0.08586733 -0.0043713576
000070 65 c7 b6 3d fb dc e8 bb f9 60 67 3d 12 04 8b ba
       0.0892475 -0.007106421 0.056488965 -0.0010606071
000080 20 ab b1 3d d0 8e 31 3d 69 3e 19 3d 01 69 96 3a
       0.08675218 0.043349087 0.037413035 0.0011475385
000090 1b 40 40 bc 9f fa 24 3c f8 c2 89 bd 28 8a 00 3e
       -0.011734034 0.010069518 -0.067266405 0.12552702
0000a0 e7 dd 39 3d 64 aa 00 3e f9 c1 66 bd fa a4 14 3e
       0.04537764 0.12564999 -0.05633733 0.14516059
0000b0 6b 35 cb 3c 36 29 0f bb 60 da a5 bd 4e e8 df bd
       0.024805745 -0.0021844632 -0.08098292 -0.109329805
0000c0 be 96 dd 3d 53 ce b2 bd e4 61 ca ba f1 1f f6 bd
       0.108197674 -0.087307595 -0.0015440551 -0.12017811
0000d0 f4 73 d7 bd 25 ce 94 bc ca c9 77 bd 79 4d 96 3d
       -0.10520163 -0.018164704 -0.060495175 0.073389955
0000e0 a5 d0 54 bc 68 65 57 bc 3b 2d 04 3e 2f 36 df 3c
       -0.012989198 -0.013146736 0.12907879 0.027247516
0000f0 04 98 c6 3d b4 07 e1 bd db 42 a6 bd ae f4 4c 3d
       0.096969634 -0.109877974 -0.081182204 0.050038032
000100 cc 60 39 bd b5 6e 13 3b ec f7 15 bd b0 57 01 3d
       -0.04525833 0.0022496406 -0.03661339 0.031577766
000110 a7 d7 20 bc 06 54 76 3d 5f 1d 68 3d 87 75 11 bc
       -0.0098170405 0.060138725 0.056668635 -0.008878118
000120 ef d5 54 3b fa db cc 3b 32 a8 9c bd ad 6b 74 bd
       0.0032476147 0.006251809 -0.07649268 -0.059673
000130 76 8c 6d bd ed f6 28 3d 99 d0 0e 3c b9 6c 16 3e
       -0.057995282 0.04125111 0.008716726 0.14689912
000140 e9 d8 f7 3d b9 58 00 bd a8 29 04 bd 1f 94 4f bd
       0.12101919 -0.031334613 -0.03226629 -0.05067837
000150 95 09 06 3d 6d 48 71 3d 03 9d 7b bd 8c 82 e6 bd
       0.032723982 0.05890696 -0.061429035 -0.112553686
000160 b4 a4 84 3d 03 31 8c 3d c0 b7 db 3b e3 b1 35 3c
       0.06476727 0.06845286 0.0067052543 0.011089775
000170 84 bb db bc 2e 4c d6 3c eb 53 a9 bc a3 94 b7 bd
       -0.026822813 0.026159372 -0.020669898 -0.08963897
000180 14 63 b5 bd 87 29 0c 3e 0a d3 0e 3e b5 27 a7 3d
       -0.08856788 0.13687716 0.13947693 0.081618704
000190 28 8f 86 3d 85 87 92 3d 15 42 33 bc 00 b6 08 3e
       0.06570274 0.071547545 -0.010941048 0.13350677
0001a0 f3 c7 49 bd d0 2c 5b bd 59 dd f0 3d 81 a0 e5 3d
       -0.049262952 -0.053509533 0.11760969 0.11212254
0001b0 25 d8 a5 3d 90 0c e3 3d 87 fd ce bd 7d a6 15 3c
       0.08097867 0.110863805 -0.1010695 0.009133932
0001c0 55 7e 88 3d f7 4f d5 3d 03 00 51 3c 18 14 db 3b
       0.06664721 0.10415643 0.01275635 0.006685745
0001d0 cf b8 96 3d 35 c5 ac bd 94 af 16 3b 13 72 aa bd
       0.07359468 -0.08436052 0.0022992836 -0.08322539
0001e0 2d 4b af bd ca 7b 5b 3c d0 8f 0b 3d 99 de 0a 3c
       -0.085592605 0.013396213 0.034072697 0.008475923
0001f0 0b 2f 02 3c ff fe b2 bb c3 e3 ac bc 0e 88 b7 bd
       0.007945786 -0.005462527 -0.021104699 -0.08961497
000200 5e 0b 0f 3e 37 66 9f 3d 1b 1a b4 bd 1a 0b d4 3d
       0.1396918 0.07783168 -0.08794042 0.1035368
000210 79 35 c0 bd 73 1a 68 3d 12 6d a2 bc b4 78 93 bc
       -0.09385199 0.05666585 -0.0198274 -0.018001892
000220 1f da 06 bd 77 2b a6 3d 3a 45 41 3d b6 a6 02 3e
       -0.03292286 0.08113759 0.04718516 0.12758908
000230 ea ba c9 3d 41 06 90 bc da 44 f3 bd 0e 29 41 bd
       0.09850104 -0.017581107 -0.11878367 -0.047158293
000240 be d8 97 bd ee 65 02 be 90 7b 98 3d 60 d4 91 3d
       -0.07414387 -0.12734196 0.07445443 0.071205854
000250 35 d2 a7 bd b3 1c 8e 3d 1d 4e ac bd 0d 0c d3 bc
       -0.08194391 0.06939068 -0.084133364 -0.025762582
000260 0a de 03 be fe a6 92 bc 5b d3 59 3d a3 21 d8 3d
       -0.1287767 -0.017901894 0.05318008 0.10553291
000270 3e 9c b1 bd 9e ab f3 bd 77 d7 bd bc af 12 a8 bc
       -0.08672379 -0.11897968 -0.02317403 -0.020516722
000280 91 13 a9 bc 17 53 4f bd aa 33 98 bd 97 3b c7 bd
       -0.020639213 -0.05061635 -0.07431729 -0.09728163
000290 52 6e 37 bd 40 d1 b9 3d 50 6a 4b b8 f6 a4 b9 3d
       -0.044782944 0.090731144 -4.8497983e-05 0.09064667
0002a0 f2 42 b8 bd 76 47 78 3d 7c 02 16 be d1 fe 8e 3d
       -0.08997144 0.060615025 -0.14649385 0.06982196
0002b0 5e 70 14 3e 22 3e 98 3d 59 3e b5 3d b9 3c 63 3c
       0.1449599 0.07433726 0.088497825 0.013869458
0002c0 a0 70 e9 bd 7b a0 b0 bd cb 2e e5 3d 5d 40 e4 3d
       -0.11398435 -0.08624359 0.11190566 0.11145089
0002d0 e4 11 a7 3d 6d c5 bd bd 1e 97 f5 3d 89 53 88 bc
       0.08157709 -0.092661716 0.11991714 -0.016641395
0002e0 94 18 bd bd 54 80 12 3e d6 e9 e3 bd e8 f9 fc 3d
       -0.092332035 0.14306766 -0.11128585 0.12352353
0002f0 e2 9e 92 3d c8 83 d4 3d 84 5d 60 3b 5a c2 36 3d
       0.07159211 0.10376698 0.0034235427 0.04461894
000300 4a 71 2e bd d1 4e b6 bd 3f 4c c0 bb 30 46 5c 3d
       -0.04258851 -0.08901752 -0.0058684642 0.053777874
000310 f2 44 98 bd 5f 66 e4 3d de 4f e5 3d a1 a9 c2 bc
       -0.07435025 0.11152338 0.11196874 -0.023762526
000320 cf 86 d9 bc 9c dd 5f 3d f7 d5 40 bc 36 2d 05 3c
       -0.02655354 0.054654703 -0.011769763 0.008128455
000330 1a 03 31 3d eb bb fd bd 67 1e 97 bc ef f1 16 3d
       0.04321585 -0.12389358 -0.018447114 0.03685182
000340 d6 97 9a 3d 87 a7 31 bd 75 f0 22 bd 1e be 9f bc
       0.07548492 -0.043372657 -0.0397801 -0.019499835
000350 b5 85 0d 3e 8e 32 16 3b 15 c0 51 3d 4c 88 e8 bc
       0.13820536 0.0022918317 0.051208574 -0.028385304
000360 93 06 86 bd 72 b4 61 3d 6e c9 7d bd d7 3a b8 3d
       -0.06544223 0.055103727 -0.061959676 0.08995598
000370 8c 63 92 bd ae c8 12 3e 6d 94 8c bd b5 34 d0 bd
       -0.07147893 0.14334366 -0.068642475 -0.10166303
000380 f3 d3 02 3d 44 45 52 bd 51 86 e8 3d d0 1a 2c bd
       0.03194041 -0.051335588 0.11353744 -0.042017758
000390 e0 3f aa 3c 76 b5 b4 bc f1 05 3d bd 0f f0 dd 3d
       0.020782411 -0.022059184 -0.046148244 0.10836803
0003a0 fa 83 f9 3d bf a1 a2 bd 46 1f b5 bd 1e ec 70 bc
       0.12183376 -0.07941007 -0.088438556 -0.014704732
0003b0 52 fb 00 3e ec 81 12 bd db aa db 3d 99 d2 38 3d
       0.12595871 -0.035768434 0.107259475 0.045122717
0003c0 d7 1e e0 3c a6 60 c2 bd ad ef 0c 3e 63 d9 68 3d
       0.027358456 -0.094910905 0.13763304 0.05684794
0003d0 61 95 3d bd c8 c0 2f 3c f9 d5 9d 3d 90 df b5 bd
       -0.046285037 0.010727115 0.07706828 -0.08880532
0003e0 5d 91 74 3d 43 65 2f 3d 18 d1 dd bb fc e5 b7 bc
       0.05970894 0.04282118 -0.0067693107 -0.022448532
0003f0 ee af 97 3d 4e c0 01 3e 97 e6 6f 3d 7e 64 4d 3d
       0.07406603 0.12671015 0.058569517 0.050144665

lstm.bias_hh_l0 f4 [256]
000000 a5 31 10 3e 6a d9 9a bc 57 e9 9d 3d da 66 10 3d
       0.14081438 -0.0189025 0.07710522 0.035254337
000010 46 17 6e bd 56 2c b6 b9 94 f8 ae 3d 32 5f 0f bd
       -0.058127664 -0.00034746778 0.08543506 -0.035002895
000020 22 74 3a 3b ab 27 e7 3d df c5 5a bd 37 4d d2 3d
       0.0028450568 0.11286863 -0.05341136 0.10268634
000030 e9 9e 12 3d df 45 8b 3b 60 05 0b 3e 7f 9c 40 3d
       0.03579608 0.0042502726 0.13576269 0.047024246
000040 82 58 91 3d 28 cc 7a 3c 44 0a 98 3d 4a 29 8a bd
       0.0709696 0.015307464 0.07423833 -0.067461565
000050 5f fe 25 3d 28 03 28 bd aa 5c bd 3d 15 b8 02 3e
       0.04052579 -0.041018635 0.0924619 0.12765534
000060 e8 4c e8 3d e4 41 03 3e ff ee 78 3d 75 7d 8c bc
       0.11342794 0.12818104 0.0607748 -0.017149666
000070 8a 06 a8 3d a6 da 48 3d 2e 67 04 3d dd 86 d1 bd
       0.08204372 0.049036644 0.032324962 -0.10230801
000080 aa c3 73 3d 9c 8e 3b 3d a1 92 0b 3e 5f db 0c 3d
       0.05951277 0.0457903 0.13630153 0.034388896
000090 2e d1 81 bd 95 46 97 bd a8 b4 17 bd 5e 59 d5 3d
       -0.06338726 -0.07386509 -0.03703752 0.10417436
0000a0 af a4 b0 bd 38 c9 83 bd 5b 68 e5 bc 20 f2 89 3c
       -0.08625161 -0.06434864 -0.028003862 0.016839087
0000b0 dd 11 81 bd ba fc 2d 3d cd 4e 0d 3b dd f0 00 3d
       -0.06302235 0.042477347 0.0021561862 0.031479705
0000c0 40 8d 8a 3d 43 4c a2 3d df b1 58 3d e7 d9 33 3d
       0.067652225 0.07924702 0.052904006 0.04390898
0000d0 d6 b8 aa bd 3f 6a 5d bc 86 a6 db 3d 6b 12 d7 3d
       -0.08336036 -0.013514101 0.10725121 0.1050156
0000e0 35 01 87 bd 00 69 37 3d 83 ba 08 3e e9 e2 55 3d
       -0.06592027 0.04477787 0.13352399 0.05221835
0000f0 d0 a3 23 bd ab a0 0c bc 4a e2 1c 3d cb 11 62 bd
       -0.039951146 -0.008583228 0.038301744 -0.05519275
000100 0d 69 06 3e 69 1e b8 3d b5 f9 0e 3e 80 d0 d3 3b
       0.13126011 0.08990175 0.13962443 0.006464064
000110 a9 ea 76 bc af fe a5 bd 67 45 12 3e a8 d4 d7 bd
       -0.015070596 -0.08105218 0.14284287 -0.10538608
000120 6a 77 3d 3d 21 0c 1c 3d f0 41 ab 3d f1 c7 1d bd
       0.04625646 0.038097505 0.08362186 -0.038520757
000130 cd 32 03 3d 4b 76 cc bd 6a b9 d9 bd 7b 9f 0d 3e
       0.03203087 -0.099835 -0.10631068 0.13830368
000140 60 c8 7b 3d 8e 25 1a 3c 25 98 85 3d e9 e1 fe 3d
       0.06147039 0.009408368 0.0652316 0.12445433
000150 5d 48 dc 3b 47 6a 3f 3d 93 ba a8 bd 80 03 a8 bd
       0.0067224936 0.046732213 -0.08238711 -0.082037926
000160 a8 7a f4 3d 62 e7 d0 3d 18 ac e5 3d cd 58 8b 3d
       0.11937457 0.10200383 0.11214465 0.06804047
000170 04 d1 87 3d cf 39 e4 3c e4 98 74 b9 b7 b9 a4 3d
       0.066316634 0.027859597 -0.0002332661 0.08043235
000180 83 67 fc 3d c4 04 a5 3d 45 ca e4 bc c2 e2 c2 3b
       0.12324431 0.080575496 -0.02792848 0.005947442
000190 d3 e1 bd 3d c2 8a 0f 3e ff 56 ef 3d 69 c7 96 3d
       0.09271588 0.14017776 0.11686515 0.07362253
0001a0 e9 02 14 3d dd da aa bb 1d e8 08 3d b7 69 c7 bd
       0.036135588 -0.005214079 0.033424485 -0.097369604
0001b0 26 22 08 3e d1 38 53 3d af 81 97 bc 47 e7 0b 3d
       0.13294277 0.051567856 -0.018494455 0.03415611
0001c0 f3 c9 b1 bd 79 24 e2 3d 61 e6 5f 3d 36 86 c3 bd
       -0.08681097 0.11042113 0.054663066 -0.09547083
0001d0 b2 11 f0 bc 5d a3 ee bd 6e 85 c9 bc 43 4c d6 bd
       -0.029305313 -0.11652253 -0.024599757 -0.104637645
0001e0 74 51 f1 bd 64 5c c2 bd 0b 75 be bd 17 f7 bc bd
       -0.11783114 -0.09490278 -0.09299668 -0.09226816
0001f0 e6 4a d9 bd e6 15 af 3c eb e9 db 3d eb 3a e2 bc
       -0.10609989 0.021372747 0.10737976 -0.027615985
000200 de 14 12 3e 95 c6 ea 3d bd e1 43 3d e9 17 02 be
       0.14265773 0.11463658 0.047822703 -0.12704434
000210 e5 03 ad bd e6 1f 1c 3c a9 fa 95 bd d9 98 4b 3d
       -0.084480084 0.00952909 -0.073232 0.049706314
000220 2d 1e e4 bd c0 8e 77 bd ef 9d bc 3d be 68 e4 3c
       -0.11138568 -0.06043887 0.09209811 0.027881976
000230 48 c9 c7 bd 06 95 bd 3d 04 43 6c bd 13 ad bf bd
       -0.09755188 0.092569396 -0.0576811 -0.09359183
000240 74 b7 80 3d 0c fd 51 3d 2a 73 c6 bd c8 93 1a 3d
       0.06284991 0.051266715 -0.096899346 0.03773859
000250 7f f7 b4 bd 4e e3 e5 bc 4b cf 9e 3d e0 f4 87 3c
       -0.08836269 -0.028062489 0.07754382 0.016596258
000260 16 12 df bd 13 40 0e 3e 19 05 94 3c 45 59 a6 3d
       -0.108921215 0.1389163 0.018068837 0.081224956
000270 85 1c 12 be ae 24 ad bd 01 b4 50 3c e0 9f 7f bc
       -0.14268692 -0.08454262 0.012738229 -0.015602082
000280 f6 73 b2 3c 4b fc 8d bd 00 72 0f be 25 44 f2 bc
       0.02178381 -0.06932887 -0.14008331 -0.02957351
000290 7f ce ad bc a4 bb 1d 3d 42 a8 0d 3d e4 18 b9 bd
       -0.02121663 0.038509026 0.03458429 -0.09037951
0002a0 3c 59 bc bd 24 b0 10 3e 7e 4f 06 be 29 bb 2c 3d
       -0.091967076 0.14129692 -0.13116261 0.042170677
0002b0 c4 82 b5 bd 52 a4 65 bc a9 1f 0b 3e 59 11 2a 3c
       -0.08862832 -0.014016228 0.13586296 0.010380113
0002c0 74 b4 bf bd 67 79 29 3d 55 df 46 3b 37 93 df 3d
       -0.093605906 0.041375544 0.0030345519 0.10916751
0002d0 55 d9 81 3d 6e 57 9d 3c b4 c7 96 bd 7f 80 a3 3c
       0.06340281 0.019206729 -0.07362309 0.019958733
0002e0 5d 3f ab 3d 42 74 0a 3d 07 b8 ad 3d a3 f3 47 bd
       0.08361695 0.03380228 0.08482366 -0.048816334
0002f0 e9 92 b9 bd 6c 2d df 3d 5d c4 e2 bb b2 99 ba bd
       -0.09061224 0.108973354 -0.006920381 -0.09111346
000300 81 38 bd bd b9 fa 13 bd a3 4a ac 3d 2d 12 aa bd
       -0.09239293 -0.03612778 0.08412673 -0.08304248
000310 2f c8 1a bd 03 91 18 bc 73 92 01 3e a1 1e ca bc
       -0.037788566 -0.009311917 0.12653522 -0.024672808
000320 9d 2a a3 3d 4b be f5 3d 7b 77 f6 3c f9 e1 b1 bb
       0.07967112 0.11999186 0.03008627 -0.0054285494
000330 02 a0 41 bd a0 a1 1d 3c ec 99 15 3d d6 df c5 3d
       -0.047271736 0.009621054 0.036523744 0.09661834
000340 36 d1 e7 3d 3c ba dd 3c 42 b4 a9 3d 84 ab 91 bd
       0.11319201 0.027066343 0.082863346 -0.07112792
000350 30 79 b1 3d 1b 1d 82 bd e2 f4 f6 3d b6 0a 06 3e
       0.08665693 -0.06353208 0.120584264 0.13090023
000360 58 02 1c bd b9 dd d1 bc cd 52 07 3d 49 dd 7f bd
       -0.038088173 -0.02561842 0.03303795 -0.062466893
000370 91 b5 94 3d 33 cd a7 3d bd d0 98 3d e1 6c 09 3e
       0.072611935 0.081934355 0.07461689 0.1342044
000380 26 bd c4 3d e2 03 0d 3e 1c a5 99 3d 31 24 d7 3d
       0.0960639 0.13771012 0.07502195 0.1050495
000390 c8 21 0f 3e 45 d9 b5 3a 7a a0 f9 3d 65 53 90 bd
       0.1397773 0.0013873955 0.121888116 -0.07047156
0003a0 e9 d6 0e 3e 15 cc 70 3c 04 65 e8 3d 63 30 39 bd
       0.13949169 0.014697094 0.11347392 -0.04521216
0003b0 30 a8 27 bd 13 3d 0b 3e 94 00 51 bd 18 74 85 bd
       -0.04093188 0.13597517 -0.051025942 -0.06516284
0003c0 58 26 8a 3d 1f 04 05 3e 60 b3 fe 3c 81 7d 4f bc
       0.06745595 0.12989853 0.031091392 -0.0126642
0003d0 0e 7f b3 3d 5c 6d 84 bd 76 11 b3 bc 16 a4 da bd
       0.08764468 -0.06466171 -0.021858912 -0.10675828
0003e0 88 25 c7 bd 95 60 d7 bd 53 20 e0 3d dd 58 02 be
       -0.097239554 -0.105164684 0.10943665 -0.12729211
0003f0 3c 22 66 3d c5 94 a3 bd fe e0 86 bd 72 11 01 3e
       0.056184992 -0.0798736 -0.065858826 0.12604311

lstm.weight_ih_l1 f4 [256, 64]
000000 8d 23 99 bd 4c ff be bd 79 55 ce bd 34 67 e8 bd
       -0.07477484 -0.09326038 -0.10074896 -0.113478094
000010 2f 81 aa bd 0d 39 07 be 5f f8 04 bd 5d fa 05 bd
       -0.08325421 -0.13205357 -0.032463428 -0.03270947
000020 66 c0 91 bc fb 6f 07 be d4 5b d7 bd 44 83 63 bd
       -0.017791938 -0.13226311 -0.10515562 -0.055545107
000030 16 11 9c bb 04 bc 44 3d 4c 9a e1 bb 56 11 45 bd
       -0.004762779 0.04803087 -0.0068848487 -0.048112236
000040 e8 36 25 bd d3 14 9a 3b 33 98 45 bc 4e 8d 8f 3d
       -0.040335566 0.0047021895 -0.012060213 0.070093736
000050 f6 b4 05 3e fe 47 a9 bd 4d 83 9c bd b0 be 56 bd
       0.13057312 -0.082656845 -0.07642231 -0.052427948
000060 37 6e 6f bd 80 de f7 bc 94 3e ee bd 0e 57 60 bd
       -0.05845472 -0.030257463 -0.116330296 -0.05477052
000070 57 7c 15 3d 74 07 bf bd 74 84 27 bc f9 bb f5 3d
       0.036495533 -0.093275934 -0.01022445 0.119987436
000080 07 04 63 bd b1 c3 0f bc 17 74 22 bc b1 db aa bc
       -0.055423763 -0.008774684 -0.009915373 -0.02085671
000090 f4 a0 d8 bd 59 d1 a6 bd 6a 80 12 3d ed 50 1c bd
       -0.10577574 -0.08145399 0.035766996 -0.038163114
0000a0 12 c3 90 bd 11 92 58 bd 0a db a1 bd 42 60 e9 3c
       -0.07068457 -0.052873675 -0.079031065 0.028488282
0000b0 d2 b5 ca bd d2 3b 65 bd 1b 4a d5 bb 7a a0 89 bd
       -0.09897961 -0.055965252 -0.006509078 -0.067200616
0000c0 bc f8 a6 3d 65 b9 f0 bd 0b 35 44 bc bc 88 61 bc
       0.08152911 -0.11754111 -0.011975537 -0.01376551
0000d0 a3 e3 b5 3d ca 34 01 be b3 46 7b bd fa 68 e0 ba
       0.08881309 -0.12617794 -0.06134672 -0.0017121129
0000e0 0d a7 2c 3d 67 04 61 3d fd 0a c6 3d f5 fb c9 3d
       0.0421515 0.05493584 0.096700646 0.0986251
0000f0 06 01 b3 bd cc fb c3 bc 1d 83 f4 3c d6 4a cd 3b
       -0.087404296 -0.023923777 0.029847676 0.0062650247
000100 68 a9 10 be 44 a8 58 bd 33 40 e5 bb 6c ad ba bd
       -0.14127123 -0.052894846 -0.0069961785 -0.09115109
000110 16 46 12 bd 55 04 ea bc 49 4c 18 3d 01 d4 cb bc
       -0.03571137 -0.028566519 0.037182126 -0.024881365
000120 ae 10 32 bd ac 8c 27 bd fc cb c9 3d d7 d0 97 bd
       -0.04347294 -0.04090564 0.0985336 -0.0741288
000130 22 5b 0c 3d 90 c1 33 3d ce 9a e2 3c 1a 93 fc bc
       0.0342666 0.043885767 0.027661707 -0.030831862
000140 14 72 c0 3c c2 c1 02 3e fd 01 bc 3c e5 66 e2 bd
       0.023491897 0.12769225 0.022950167 -0.11054782
000150 e9 75 a5 bd 8c fc af 3d 3e 81 a3 3d a1 51 66 bd
       -0.0807913 0.08593091 0.07983635 -0.05623019
000160 97 e4 04 3e 58 c0 f5 bd aa 63 9c 3c 9e f0 d8 3d
       0.12977825 -0.11999577 0.019090492 0.10592769
000170 0e ad 68 3c d2 ad 10 3e f9 e7 62 bc e9 91 65 3d
       0.014201416 0.14128807 -0.013849252 0.056047354
000180 f5 e9 49 3d 13 b8 ed 3d 48 d6 8c 3c ad 45 ec bb
       0.049295384 0.11607375 0.017192021 -0.0072104544
000190 4c 7d fb bc dc b7 89 3c 44 14 38 3d 96 00 39 3d
       -0.030699395 0.016811304 0.0449412 0.045166574
0001a0 45 97 77 3d 15 b5 ca 3a 7f 2b b5 3b 4f 1e d0 bd
       0.060446996 0.0015465344 0.005528867 -0.10162031
0001b0 37 06 c5 bd d1 1c c4 3d 49 8c 8e 3d 28 a0 ac 3d
       -0.09620326 0.09575809 0.06960351 0.08428985
0001c0 70 ca 51 bd 42 53 13 bd c4 a3 73 bd c3 d2 84 bd
       -0.05121845 -0.035968073 -0.05948235 -0.06485512
0001d0 22 b5 f8 bd 5e 77 a5 bc 93 cd fb bd fb 2f b4 bd
       -0.12143923 -0.02019852 -0.122950695 -0.08798214
0001e0 da fb 9a bd 43 2e 10 bd 9a 10 44 3c 4e 13 13 3d
       -0.07567568 -0.03520037 0.011966849 0.035907082
0001f0 90 ae cb 3d 0b 32 e4 bd df 05 40 3d 15 af 80 bd
       0.099454045 -0.111423574 0.0468806 -0.06283394
000200 da 76 a4 3c 58 7a 48 bc ed aa f1 bc 87 2b aa bd
       0.020076204 -0.0122362 -0.02950045 -0.083090834
000210 73 20 51 bc 32 d4 e6 bd 28 dc 0d 3e f1 15 51 bd
       -0.012764084 -0.11270942 0.13853514 -0.051046316
000220 f6 46 46 bd 80 c1 35 3d 81 8a 8f 3d 28 1b 77 bd
       -0.048407517 0.04437399 0.070088394 -0.060328633
000230 56 61 59 39 d5 84 7f bd 21 a0 dc 3d 64 8e 99 bd
       0.00020730993 -0.062382538 0.1077273 -0.07497862
000240 a4 0b 88 bc 33 8b 8b 3d 3f 31 8b bc 5e 5a b1 3d
       -0.016607113 0.068136595 -0.016991256 0.08659814
000250 3e 86 91 3d 07 57 73 bd 5f 6e 36 bd e2 62 42 bd
       0.07105683 -0.059409168 -0.04453885 -0.047457583
000260 89 25 46 bd 58 79 39 3d e8 c1 6c bd 8c 03 4f bd
       -0.04837564 0.045281738 -0.05780211 -0.050540492
000270 c9 04 31 3d e4 87 87 bc 36 8b e4 3d dd 62 bd 3d
       0.043217454 -0.01654429 0.11159365 0.09247372
000280 57 b2 65 bd 7f 8a bd 3d 22 98 0f bd cf b8 85 3d
       -0.05607828 0.09254932 -0.035057195 0.0652939
000290 93 69 7d 3d 00 c2 b2 b9 82 c1 3e 3d da 23 c2 3d
       0.06186826 -0.00034095347 0.046571262 0.094794944
0002a0 6c 6f 96 bd 71 2a 65 3b a7 ad e2 bb 39 33 fb bd
       -0.07345471 0.0034967924 -0.0069176736 -0.12265629
0002b0 30 0d 2c bc 9a 6e f1 bc 40 58 8d 3d c0 08 d1 3b
       -0.010501191 -0.029471684 0.06901598 0.006379217
0002c0 63 52 bf 3d 13 83 fe bd 0e 77 54 bd 5c aa d0 38
       0.09341886 -0.12427344 -0.051871352 9.949945e-05
0002d0 0f 3c e7 bd e7 5c ad bd 70 bb 5e 3d 0c f3 fc bd
       -0.11290752 -0.08464985 0.054377973 -0.12351045
0002e0 5a 04 81 3d 92 df 02 be 90 69 15 bd fb c1 c0 3d
       0.06299658 -0.12780598 -0.036477625 0.09411999
0002f0 14 02 4f bd 8f 8f 81 bc b0 01 af 3d 83 ad e8 3d
       -0.05053909 -0.015815524 0.08545244 0.1136122
000300 ba 05 94 3d 72 ee d7 3d dd a9 7d 3d 4a cc b2 bb
       0.07227655 0.10543527 0.061929572 -0.005456482
000310 76 a9 d6 3d 4f 0e a4 3d dd e8 81 3d bf aa 47 bc
       0.10481541 0.08010542 0.06343243 -0.012186705
000320 f2 17 a9 bd 56 55 d6 bd 2b 47 f8 bd 92 67 e0 bc
       -0.0825652 -0.10465495 -0.12122949 -0.027393136
000330 20 b2 ea 3d a6 b1 28 3d f4 76 cb 3c 2f a1 4f bd
       0.11459756 0.041185044 0.024836995 -0.050690826
000340 04 ab 66 bd 37 f3 ac bc 4e 7e 03 b6 30 d8 c7 3d
       -0.056315437 -0.021112068 -1.959404e-06 0.09758031
000350 97 80 12 bd 1c 6d 5a 3d 0f bc ff bd 9d 66 01 3e
       -0.035767164 0.05332671 -0.12487041 0.126368
000360 0a da ce 3d e7 a3 8d bd df 4a 50 3c ea 8d e4 3d
       0.101001814 -0.069160275 0.012713163 0.111598805
000370 bc 80 8f bd a4 b9 ea bc 9f 73 ef bd 51 d0 51 3d
       -0.07006976 -0.028652973 -0.11691975 0.051224057
000380 f1 e1 02 3e 4b 70 98 3c 7e a3 f5 3d f3 14 61 bd
       0.12781502 0.018608233 0.11994074 -0.05495162
000390 7b 00 f6 bb 33 b2 fc bd 6a 90 84 3d 56 ae be bd
       -0.0075073815 -0.12338676 0.06472857 -0.09310596
0003a0 84 ee a1 3d 16 80 e9 bd df 78 c7 bc 86 d3 3e 3b
       0.07906821 -0.114013836 -0.024349628 0.0029117777
0003b0 12 de f0 bd 24 a3 b3 3d a6 bc 01 ba 5b 5e 06 bd
       -0.117611066 0.08771351 -0.000494907 -0.032804828
0003c0 c6 ce ec bd 66 d2 3a bd bd 94 b3 3d 05 bb 97 3d
       -0.115628764 -0.045610808 0.08768604 0.07408718
0003d0 b5 4c de 3c 6c 8c 85 3c 75 35 90 bd 87 8c d4 3d
       0.027136186 0.01630231 -0.07041446 0.10378366
0003e0 ca 36 fc bd b2 dd 8c bd 80 da 19 3d ed 08 ff 3d
       -0.12315138 -0.068782225 0.037561893 0.12452874
0003f0 77 a0 97 bd bc 8f d2 3b 22 7c ce 3d 1c 6f 53 3c
       -0.07403653 0.006425826 0.1008227 0.0129049085

lstm.weight_hh_l1 f4 [256, 64]
000000 a7 7e 60 bd 2b 3e 71 3a 7a 4a 8c bd 1b 14 23 3d
       -0.054808285 0.0009202684 -0.06850143 0.039814096
000010 e8 a4 d9 bd 15 1a b8 bd 74 6b c6 bc 09 91 e2 3d
       -0.106271565 -0.0898935 -0.02422116 0.110628195
000020 1c fe a4 3d 04 a3 cc 3d 26 eb 7e 3c 58 5f c0 bd
       0.0805628 0.0999203 0.015558993 -0.093931854
000030 79 f1 96 3d c3 29 8d bd 08 7c 98 bc b0 17 31 bd
       0.07370276 -0.06892731 -0.01861383 -0.04323548
000040 86 33 69 bd d6 2d a7 bd d3 a9 f0 3d ed 07 8a 3d
       -0.056933902 -0.081630394 0.117511414 0.06739793
000050 7c 83 70 3d f1 f4 f9 bd 47 e5 f3 bc 27 6a 9e 3d
       0.058719143 -0.12204922 -0.029772414 0.07735091
000060 8e 62 2f bd 08 de 05 be 79 d3 b5 bc 06 3b 8c 3d
       -0.0428186 -0.1307298 -0.022195565 0.06847195
000070 e3 36 8f 3d 16 f7 c6 3d 67 3d 3a 3d 5a af 96 3d
       0.06992891 0.09715097 0.045468714 0.073576644
000080 b0 fd 12 bd 44 ea 39 3c a6 29 01 bd b9 03 9b bd
       -0.035886467 0.011347357 -0.03153386 -0.075690694
000090 38 26 3a bd 54 dd d2 3c 67 2f ee bc c2 f7 0b 3d
       -0.045446604 0.025740303 -0.029075338 0.034171827
0000a0 33 f6 0d 3e a6 e8 a1 bd 82 8c a6 bc df df ea 3d
       0.13863449 -0.07905702 -0.020330671 0.11468481
0000b0 17 6a 98 3d ff 8b ec bd 47 4e 5b 3d bf 1e fb 3d
       0.0744211 -0.1155014 0.053541448 0.12261724
0000c0 45 b2 4c bd 74 9d f8 bb 17 0e 61 3c b8 4b 97 bd
       -0.0499747 -0.0075871293 0.013736269 -0.07387489
0000d0 1f 3e d0 bd b5 59 a9 bc 91 d6 44 3d 50 6b dc 3d
       -0.10168099 -0.020672658 0.04805619 0.10762656
0000e0 d8 da b4 bc 56 be 5f bd 7f 83 c7 bd c2 c5 0a bb
       -0.02207701 -0.054624878 -0.09741878 -0.0021175002
0000f0 ca 0e c0 3c 47 f7 a5 bc 5c 93 48 bc 9f e9 18 bc
       0.023444552 -0.020259513 -0.012242164 -0.009333043
000100 83 ea ae 3b 0b 94 38 3c 0e 38 00 be 24 83 f4 3d
       0.0053380146 0.011265765 -0.12521383 0.119390756
000110 16 dd 0c 3b 7d 21 ce 3d 6b 44 79 bc 0c 61 35 3d
       0.0021494082 0.10064981 -0.015214066 0.044282004
000120 08 4d a2 3b 79 12 a3 3d 38 78 0e 3e 8c 6d dc bd
       0.0049530305 0.07962508 0.13913047 -0.10763082
000130 30 96 b6 3d f2 8c ec bc a4 ed b1 3d c0 a8 5f bd
       0.08915365 -0.028875802 0.086879045 -0.054604292
000140 50 2f d4 bd a1 43 bc 3d 24 85 61 3d ad 72 cc bd
       -0.10360587 0.09192587 0.055058613 -0.0998281
000150 24 c5 f8 bd 11 d3 28 bc a5 ef 14 bd fe da 85 bd
       -0.121469766 -0.010304228 -0.036361355 -0.0653591
000160 da 03 a9 bc 69 85 86 3d d3 3b 93 3d 75 d9 e6 bc
       -0.02063172 0.06568415 0.07189145 -0.028179863
000170 60 c1 55 3d 43 73 e9 bd 5e 7a de 3d 02 b7 77 3d
       0.05218637 -0.113989376 0.108631834 0.060477264
000180 e8 ab 07 bd a7 bf 14 bd 44 b9 d9 3c f7 5c af 3d
       -0.033122927 -0.036315586 0.0265776 0.085626535
000190 8f a9 02 3d a5 49 b1 3d 8e 15 34 bd dc 45 4b bd
       0.031899985 0.08656625 -0.04396587 -0.04962717
0001a0 7c 4c 30 3c de 68 c4 bd f2 74 65 3d ff aa 4d 3d
       0.010760423 -0.09590314 0.05601973 0.050211903
0001b0 7d 67 c4 bd 67 da fb 3d ce df 0d 3d 6f a7 46 bd
       -0.09590051 0.12297516 0.034637265 -0.04849952
0001c0 2f 10 3c bd 1e b9 b0 3d 1e 62 f9 3c 5c ff 2e bd
       -0.04591387 0.08629058 0.030442294 -0.042724
0001d0 76 14 0c be 31 6a e4 bd 3d f8 0f 3e c8 e2 e2 bc
       -0.1367968 -0.11153067 0.14059539 -0.027696028
0001e0 b7 87 bd 3d 93 71 b3 bd c9 c6 da bc 4d 98 0c 3d
       0.09254401 -0.08761897 -0.026706116 0.034324933
0001f0 08 61 9c bd 16 ab d0 3d 19 81 28 bc 9b 9c 70 bd
       -0.07635695 0.10188882 -0.0102846855 -0.0587431
000200 bf 7c b1 bd 31 d4 d9 bd 32 7b 46 bd 4f ca 04 bd
       -0.086663716 -0.106361754 -0.048457332 -0.0324195
000210 03 dd e4 3d d9 3b 81 3d 43 64 22 3d 59 6b 07 3d
       0.11174967 0.06310243 0.0396464 0.03306136
000220 1e b2 e2 3c 49 be c3 3d 88 7d c2 3d f0 5e ae 3d
       0.027672824 0.095577784 0.094965994 0.08514202
000230 df bb b3 3d fd 42 96 3d e1 a1 57 3d e1 5e 75 3d
       0.08776068 0.07336996 0.052644614 0.059904937
000240 67 77 a1 3d 15 ef b2 3c b2 9c cc 3d c7 11 79 3c
       0.07884102 0.021842519 0.09990825 0.015201992
000250 08 fe 1d bd 7c 30 dd 3d 67 df 91 3d 29 60 f0 3c
       -0.03857234 0.10800263 0.07122689 0.029342728
000260 14 ce 08 be 57 49 bf 3d 22 15 a7 3d b2 44 3a bd
       -0.13359863 0.0934016 0.08158328 -0.04547567
000270 eb 7f 32 bd c2 e6 01 be bc ad a4 3d 28 ae e6 bb
       -0.043579023 -0.12685683 0.0804095 -0.007039804
000280 ca 2a 23 bd 97 91 07 be d3 49 af bd 25 00 dd 3c
       -0.03983573 -0.13239132 -0.08559003 0.026977608
000290 ad a5 ec 3d 96 ba 9a 3d f2 93 49 bc 97 2b b8 bd
       0.11555038 0.0755512 -0.012303339 -0.08992689
0002a0 04 02 ac bc a5 4f c0 3d fb 4d 0c 3e fc 11 c9 3d
       -0.020997055 0.09390191 0.13701622 0.09817883
0002b0 ce 73 39 3c 79 11 c8 3d a6 68 f6 bd cd 1b 90 3c
       0.011319114 0.09768958 -0.12031679 0.017591381
0002c0 71 56 0b 3d 45 57 4f 3c 70 68 bb 3d 1e 41 95 3c
       0.034017984 0.012655084 0.09150779 0.018219527
0002d0 32 23 bb 3d 7b 14 bd bc 8e 1a b1 bc f6 ba d6 3b
       0.09137572 -0.023081055 -0.021619108 0.006553049
0002e0 d9 b4 cc 3c e3 b1 01 3e 6a fc 22 bb 13 50 b0 bd
       0.024988579 0.12665515 -0.0024869689 -0.08609023
0002f0 8d 71 ac 3c 98 29 dc bd 7f 36 84 bc f1 60 56 bd
       0.021050239 -0.10750121 -0.016139267 -0.052338544
000300 a9 72 f8 3c 45 af 9c bd de 50 af bd ad 7c e3 bd
       0.030328112 -0.076506175 -0.08560346 -0.111077644
000310 cf ca c6 bd 30 ef fc 3d 01 5f 99 3d b7 76 7a bd
       -0.097066514 0.12350309 0.07488824 -0.06114837
000320 7d 89 a8 bc 6e 99 8b 3d e2 9d c6 3d 79 6c 55 bd
       -0.020573372 0.06816374 0.096980825 -0.0521054
000330 0c 28 1c bd d9 ed 26 bd 9f 67 71 3d af c7 9b bd
       -0.03812413 -0.040754173 0.05893671 -0.07606446
000340 74 e3 d8 bc 5f da 84 bd 56 49 9f bc 86 8d 82 3d
       -0.026475646 -0.064869635 -0.019444149 0.0637465
000350 4d 6f b4 bd 06 01 72 3d 30 f9 52 3b ce 3f c8 3d
       -0.088102914 0.059083007 0.0032191984 0.09777795
000360 12 f3 01 be 29 52 d9 bd c0 cf ad bd c4 7c e5 3d
       -0.1269038 -0.10611374 -0.08486891 0.11205438
000370 6a 8b 7b 3d 98 31 d3 3d 08 0b e4 bd d3 15 3a 3a
       0.061412252 0.10312194 -0.111349165 0.0007098589
000380 d8 e3 14 3d fa 62 e4 bd 47 58 db 3c 6c ad c5 bc
       0.0363501 -0.11151691 0.026775492 -0.024130546
000390 e9 d0 dd bd 48 e4 76 3d 46 98 4b bd 1c 9d 94 bd
       -0.10830862 0.0602763 -0.049705766 -0.07256529
0003a0 1c 3a f0 bd 38 df 2a 3d d3 c8 39 3c d1 92 c1 3d
       -0.117298335 0.041716784 0.011339384 0.09451831
0003b0 a3 6e ba bd 3a 47 df bd 86 6d 19 3d 31 44 87 bd
       -0.091031335 -0.10902257 0.037457965 -0.06604803
0003c0 f2 aa df 3d dd 2e 9d bd e8 4e 90 bd 80 41 3d bd
       0.10921277 -0.07674954 -0.070463 -0.046205044
0003d0 76 68 16 bd 24 c8 cf bd 62 a7 18 3c 3f 40 c9 bd
       -0.036720715 -0.10145596 0.009317251 -0.09826707
0003e0 6a ee a6 bd 53 9d cb bd 94 49 95 bd b4 87 19 3d
       -0.081509426 -0.099421166 -0.072894245 0.037482932
0003f0 7a 73 dd 3d 1d 02 c0 bd 13 51 0a bd ac e1 3e 3c
       0.10813041 -0.09375403 -0.033768725 0.011650484

lstm.bias_ih_l1 f4 [256]
000000 81 24 95 3d 43 10 1d bd d1 c3 c1 bd ce 73 b9 3d
       0.07282353 -0.038345587 -0.09461177 0.09055291
000010 18 60 d9 bd cf ba 97 bc 00 ff 92 3c a7 0c 25 bd
       -0.106140316 -0.018521694 0.01794386 -0.04029527
000020 0b 90 b3 3d 2c 67 36 3c 73 ec 49 3c ac ea f3 3c
       0.087677084 0.0111329965 0.01232444 0.029774986
000030 fc ad dd 3d 19 4f 88 3d 18 7e 54 bc 0a b7 5d 3d
       0.108242005 0.06655712 -0.012969516 0.054129638
000040 0a 78 58 bc 87 c6 ee 3c 82 dc 8b 3d 93 fa ad bc
       -0.013212213 0.0291474 0.06829168 -0.021237647
000050 3e 38 6f 3d e6 2e 5e bd a8 a0 cf bc 68 07 29 3d
       0.058403246 -0.054243945 -0.025345162 0.04126683
000060 29 77 0f 3e 91 87 8d bd ca aa 58 3d f8 19 a4 bc
       0.140103 -0.06910623 0.052897252 -0.020031914
000070 f0 11 a7 bd 28 4c 11 3e 42 11 d2 3d e1 9f ac bd
       -0.08157718 0.14189208 0.10257198 -0.08428932
000080 5a b9 20 bd 5d 13 d2 bc 95 28 6a 3d cc ff 7a bd
       -0.039239265 -0.025643999 0.05716761 -0.061279103
000090 00 fc 7d 3b 0c d4 89 3d e2 0a 8f 3c 8f b0 60 bd
       0.003875494 0.06729898 0.017461244 -0.05485588
0000a0 b5 10 9b bd 11 7c e6 3d c9 2a 08 3e 70 4e cd bc
       -0.07571546 0.112541325 0.13297571 -0.025061816
0000b0 aa 16 d6 3d 24 4b f8 bc 86 2f a4 ba ef bf b2 bd
       0.104535416 -0.030309267 -0.001252637 -0.08728015
0000c0 64 de 51 bd 89 56 32 bc e3 b3 04 3e 75 eb cb bd
       -0.05123748 -0.010884889 0.12959246 -0.09957019
0000d0 4a b9 46 bd 72 a4 d8 bd 68 a2 91 3b e1 9c f1 3b
       -0.04851655 -0.105782405 0.004444409 0.0073734378
0000e0 4e a2 e5 3d df 77 0f 3e 39 a7 6d 3d 54 c3 bf bd
       0.11212598 0.14010571 0.058020804 -0.09363428
0000f0 7a b4 85 3c 5c a7 cb bd de f2 6e bd 0a 08 a2 bd
       0.01632141 -0.09944031 -0.058337085 -0.079116896
000100 12 47 d1 bc 1e b8 af bd b8 68 af 3c ae 75 bb 3d
       -0.025546584 -0.085800394 0.021412238 0.09153305
000110 87 57 9f bd a4 f9 c4 bd 6c fe 2b 3d 26 02 ca 3d
       -0.077803664 -0.09617928 0.041990682 0.09863691
000120 f2 1b 28 bd c8 51 6c bd 41 b5 03 3e eb ba 13 bc
       -0.041042276 -0.05769518 0.12862112 -0.009016733
000130 50 e8 dc 3d 52 5a 87 bc ec 87 26 bd a0 b3 26 bc
       0.107864976 -0.01652256 -0.04065697 -0.010174662
000140 bb 24 17 bd c3 85 be 3c b0 90 09 3e 9f 0e 7e 3d
       -0.036900263 0.023257142 0.134341 0.062025663
000150 3d 39 51 3c f8 db 4e 3c 1f 3d 8b bb 82 99 51 3d
       0.012769994 0.012625687 -0.0042492296 0.051171787
000160 3c 2c 9b 3b cc e6 8b 3d b6 a3 d2 3d 5f 54 b3 3a
       0.0047354978 0.068311304 0.10285132 0.0013681761
000170 ad 3c 0d bd 28 2d f6 3d e6 3f 02 be c2 84 ad bd
       -0.034481693 0.120203316 -0.12719688 -0.08472587
000180 94 d1 21 3d 45 2e 48 3d c0 c3 89 3d e0 dd 15 3e
       0.03950651 0.04887225 0.067267895 0.1463542
000190 ca 0d 8c bd 54 15 eb 3d 71 fe 95 3d bd 5b e8 3c
       -0.068385676 0.114786774 0.073239215 0.028364057
0001a0 fe e7 11 3b 78 6c c7 3d 75 1f b8 3b b7 9a e5 bc
       0.0022263522 0.09737486 0.0056189843 -0.028027875
0001b0 72 6a 4c 3d 99 19 2a 3d 80 4f 91 bd e7 f2 0d be
       0.0499062 0.041528318 -0.070952415 -0.13862191
0001c0 93 cb a4 bd 6b 4b 04 bc 80 fd a2 bc be ec 89 bd
       -0.08046641 -0.008074622 -0.019896269 -0.06734608
0001d0 7c 5c ac ba 84 6b 67 3d a4 0a c5 3d ec 77 07 3c
       -0.0013150121 0.05649902 0.0962117 0.008268338
0001e0 c3 ea d8 3d 4f d1 05 3e 40 f1 a6 3d 80 a6 45 bd
       0.10591652 0.13068126 0.081514835 -0.04825449
0001f0 5f c5 8a 3d 5a 48 f3 3b 39 95 c0 bd 1a 5b cf 3d
       0.06775927 0.0074243965 -0.09403462 0.10124798
000200 87 83 2e bd 21 4b bc 3d a4 ab be 3c ab e3 de bc
       -0.042605903 0.09194017 0.023275204 -0.02720817
000210 ef cc 0a be 21 99 10 be 9a f2 88 bc 2e be 83 bc
       -0.13554738 -0.14120914 -0.016717244 -0.016081896
000220 a0 c6 e6 bd b2 3a 05 3c de ae 0c be 81 2d c0 bc
       -0.112683535 0.00813167 -0.13738582 -0.023459198
000230 98 a5 c7 bd c3 30 83 bc 6c d6 74 3d ba 6f 32 bc
       -0.097483814 -0.016014462 0.0597748 -0.0108908955
000240 4c ef b5 bd d3 70 0e bb 51 81 00 be ef 37 b1 3d
       -0.08883533 -0.002173473 -0.1254933 0.086532466
000250 98 a8 d2 3d 47 11 95 3d 05 02 f4 3d b8 ff d6 3d
       0.10286063 0.07278686 0.11914448 0.10497993
000260 c1 05 91 3d 4c 0f b0 3d 04 99 60 3d ae 61 86 bd
       0.070811756 0.08596668 0.054833427 -0.065616
000270 5f 35 f8 bc 15 5f 1c bc 41 76 04 bd eb e7 09 be
       -0.030298887 -0.009544154 -0.03233934 -0.13467376
000280 f7 97 d0 3a a6 21 0d 3e 09 26 50 bd cb de 0d 3e
       0.001591443 0.13782367 -0.050817523 0.1385452
000290 dd 32 0c be 5b b8 71 bd 8e dc c1 bd dd 5e f4 bd
       -0.13691278 -0.059013706 -0.094658956 -0.11932156
0002a0 c5 ac 2e bd 95 a3 7e bd 70 b8 23 3d b6 43 a6 3d
       -0.042645235 -0.062167723 0.039970815 0.081183836
0002b0 e6 7d ff 3d 59 02 b3 3c b5 f4 56 3d a7 b0 0a 3d
       0.12475185 0.021851705 0.052479465 0.033859875
0002c0 59 cd 30 bd 76 4b 24 3d d3 f7 f9 bd 66 49 96 3d
       -0.043164585 0.040111028 -0.12205472 0.073382184
0002d0 33 38 aa bc cf b2 e0 bc 37 94 c5 bc f6 fa 0a be
       -0.020778751 -0.027429013 -0.024118526 -0.13572297
0002e0 ac 4b f5 bc 50 9a ed 3c e3 70 7b 3b 8d 77 b0 bd
       -0.02994331 0.029004246 0.0038366846 -0.086165525
0002f0 27 fc cf 3c 61 00 a2 bd 28 3c 0f bd cc bf c6 bd
       0.02538879 -0.079102285 -0.03496948 -0.09704551
000300 62 f5 cb 3c 3f 51 fc bb b7 07 4d bd 50 88 b2 3d
       0.024897281 -0.007700115 -0.050056186 0.08717406
000310 19 d4 fb bd 35 c5 04 bd e7 8e f3 bc f7 8f 59 3d
       -0.12296314 -0.032414634 -0.029731227 0.05311581
000320 1c 57 9a bd 41 e5 b9 bd 66 b2 90 3d 3c bc bc bd
       -0.07536146 -0.0907693 0.07065277 -0.0921559
000330 12 2a e7 3c 72 26 e1 3d d4 fb ce 3c ab 55 88 bc
       0.028218303 0.10993661 0.025266565 -0.016642412
000340 f0 96 32 bd f6 9f 21 bd 49 ae 5a 3d b1 b4 79 bd
       -0.043600976 -0.03945919 0.053388868 -0.060963336
000350 8b c7 a1 bd 5d 8a be 3c bb 60 38 3d be 98 25 3d
       -0.07899388 0.023259336 0.045014124 0.04042887
000360 5a 98 a1 bc dc bf c8 bd 6f 81 0a bb 53 ea f2 bc
       -0.019725967 -0.09802219 -0.0021134277 -0.02965275
000370 9b 84 20 3d 30 bb 09 3e 3b dd 4a bd 3c f1 a5 3d
       0.039188962 0.13450313 -0.049527388 0.081026524
000380 5d d5 c4 bd 6e f8 7c bd fd 4c 05 bd 67 ed 2b 3c
       -0.09611008 -0.06176036 -0.032544125 0.010493613
000390 49 45 f1 3d e1 90 cf 3b 69 26 a8 bd df 19 6f 3c
       0.11780793 0.0063344096 -0.08210451 0.0145935705
0003a0 60 31 86 bc cf 42 29 3b 8e 8c c9 3c fe 3f 79 bc
       -0.016380966 0.0025827175 0.024603155 -0.015213011
0003b0 0c 71 d6 3d d1 6f c6 3d 77 4d a8 bd 73 d5 00 bd
       0.10470781 0.09689296 -0.082179 -0.03145356
0003c0 02 27 ad 3d 43 57 e3 3d 12 62 ca 3c 4d e8 cc bc
       0.08454706 0.11100628 0.024704967 -0.025013113
0003d0 98 af c4 bd c2 6c 84 bd 62 9d 37 bd 3b 80 83 3d
       -0.09603804 -0.064660564 -0.044827826 0.064209424
0003e0 bf a4 82 3a aa f5 04 bd ca e3 31 3d c4 86 9a 3d
       0.0009967311 -0.032460846 0.043430127 0.07545236
0003f0 a6 9d 73 bd 08 89 2f 3d 25 0a ff bc 61 86 8e 3d
       -0.059476517 0.042855293 -0.031132767 0.069592245
