StockPredictor/bj430139_daily_data_2022-10-28_2024-04-29_20250403.pth (torch, 210241 bytes, 10 tensors)

lstm.weight_ih_l0 f4 [256, 5]
-0.12906948 -0.1252378 0.09976681 -0.046371683 0.041842774 -0.11356698 0.06320605 0.103355356
0.055004902 0.08708517 0.019625995 -0.0472378 0.08951972 -0.07806031 0.00051898684 0.03769548
-0.04966848 -0.08459953 0.048133966 -0.10541222 -0.08949339 0.071109116 0.055342685 -0.06471414
-0.029451415 0.038046375 0.038395178 -0.08512309 -0.035076644 0.041101187 -0.1254284 0.06691415
-0.055740055 0.040605035 0.06982762 0.06838132 0.1222077 0.11437652 0.0708984 -0.0024501248
-0.1298155 -0.0530736 0.043257557 0.044639442 0.045151517 -0.050342627 -0.060586054 0.12302958
-0.051700626 0.07302882 0.0621272 0.038519517 0.0715265 -0.07897017 0.08549598 0.023313371
-0.10115118 -0.031451985 0.041072883 0.07188756 -0.044547725 -0.05535517 -0.067544885 -0.09650337
-0.0029062198 0.009532684 0.04993738 -0.104649775 0.09368798 -0.11903248 -0.11661781 -0.011336372
0.065998465 -0.015821088 0.028218716 -0.040313024 0.0031960683 -0.07799834 0.046166275 -0.13028388
-0.01879951 -0.0052383184 0.023019856 0.013650966 -0.118845195 0.11138656 -0.1255624 -0.06743159
0.060048442 -0.027893087 -0.04066193 -0.09315467 0.030437812 0.09971809 0.11905556 0.020766411
-0.0761266 -0.08746359 0.010313093 0.12124045 0.013205395 0.035342425 0.009113989 0.058489006
0.11066438 -0.03983679 -0.10169733 0.0093591325 0.08121265 -0.010209385 0.0809314 -0.10002468
-0.092856854 -0.060740877 0.09699951 0.061261144 0.050725713 -0.026616264 0.0059744143 0.087748274
0.10679114 0.043058585 0.08156744 -0.010031471 0.05971014 -0.11194096 0.016630342 0.031029884
0.07153781 0.10932743 0.031426948 -0.11173391 -0.0091790985 -0.08224015 0.07306798 0.12234757
0.11783973 0.041470535 -0.019580001 -0.008327089 -0.097325996 -0.063994795 0.02240493 0.12203895
-0.045129683 0.08495721 -0.12823242 -0.029320726 -0.03085585 -0.13494888 0.027428098 -0.07808053
-0.07119385 0.058093883 0.060426857 0.00785513 0.018592352 -0.020576844 -0.03362801 0.10012457
0.051791757 -0.0778641 0.10459332 0.026727494 -0.0064864596 -0.11812819 -0.06069477 0.098665096
-0.08962833 0.012030652 0.07873859 -0.1326413 -0.118054844 -0.09872897 0.027006695 0.1094422
0.022793923 0.08540625 0.054649904 0.060977813 -0.12610503 0.10495726 0.0040254984 -0.05465833
-0.05603084 0.036958173 -0.03493598 -0.079295315 -0.011977942 -0.09025951 0.037976522 -0.04061549
-0.10767743 0.091252536 0.12410219 0.06418392 -0.018951064 0.0246466 -0.07680536 -0.049875945
0.10677069 0.018095274 0.022933992 -0.0304627 -0.00501975 0.052353937 0.12370028 -0.10418766
0.041258033 -0.08455941 0.05266483 -0.056051623 -0.024750175 -0.093983375 -0.058208074 -0.110486165
0.04699527 0.0965056 -0.04979118 0.009895105 -0.05626752 -0.12277426 0.034487754 -0.021043157
0.04502378 -0.05443596 -0.09193498 0.120195225 -0.027161187 -0.084930815 -0.13366458 -0.0068214494
-0.056971952 -0.10893482 0.021335434 0.0054944553 -0.06645127 0.08068058 0.0691479 0.086133674
-0.08455192 -0.051595997 0.100705095 -0.067666374 0.0039380062 0.06517125 0.12304773 0.07357997
0.0741527 -0.0067661465 0.05233001 -0.064551935 -0.10545291 0.067183815 0.033358306 -0.06187352
00000000: ca2a 04be 563e 00be 8b52 cc3d 3cf0 3dbd
00000010: 5463 2b3d ce95 e8bd 2c72 813d f9ab d33d
00000020: d24c 613d b659 b23d b2c6 a03c 6c7c 41bd
00000030: 1d56 b73d 15de 9fbd 9e0c 083a 9366 1a3d
00000040: 2d71 4bbd 8542 adbd 1f28 453d 5de2 d7bd
00000050: 4f48 b7bd a8a1 913d 03af 623d d988 84bd
00000060: 1844 f1bc 84d6 1b3d 4344 1d3d 0455 aebd
00000070: 87ac 0fbd b859 283d 4d70 00be 490a 893d
00000080: af4f 64bd 7751 263d c901 8f3d 810b 8c3d
00000090: 0848 fa3d 3d3e ea3d 2e33 913d 4692 20bb
000000a0: 5bee 04be b463 59bd d62e 313d d9d7 363d
000000b0: ccf0 383d 1234 4ebd 1529 78bd eff6 fb3d
000000c0: 09c4 53bd 2290 953d 1779 7e3d a4c6 1d3d
000000d0: 7c7c 923d 1dbb a1bd 8418 af3d affb be3c
000000e0: 5a28 cfbd ccd3 00bd 0a3c 283d c939 933d
000000f0: ad77 36bd 1abc 62bd f954 8abd 8fa3 c5bd
00000100: 4776 3ebb fa2e 1c3c 238b 4c3d 9f52 d6bd
00000110: 7cdf bf3d 4dc7 f3bd 52d5 eebd 31bc 39bc
00000120: 342a 873d 3a9b 81bc f02a e73c 451f 25bd
00000130: 2175 513b 98bd 9fbd d918 3d3d 2369 05be
00000140: 6e01 9abc 33a6 abbb 2394 bc3c 4da8 5f3c
00000150: 1c65 f3bd a31e e43d 6e93 00be 9319 8abd
00000160: 5bf5 753d 0b80 e4bc 208d 26bd e0c7 bebd
00000170: b858 f93c ff38 cc3d 67d3 f33d 521e aa3c
00000180: 43e8 9bbd 1c20 b3bd 3ff8 283c ea4c f83d
00000190: 715b 583c 38c3 103d d752 153c 2b92 6f3d
000001a0: 02a4 e23d e72b 23bd b146 d0bd 0c57 193c
000001b0: d152 a63d 4445 27bc 5dbf a53d bdd9 ccbd
000001c0: bc2b bebd 6dcb 78bd aea7 c63d f7ec 7a3d
000001d0: c4c5 4f3d 5a0a dabc 05c5 c33b 5eb5 b33d
000001e0: 50b5 da3d 335e 303d d40c a73d 0a5b 24bc
000001f0: 9f92 743d 4d41 e5bd 5b3c 883c 6232 fe3c
00000200: 6a82 923d 0fe7 df3d 8bb9 003d c0d4 e4bd
00000210: ee63 16bc 866d a8bd aaa4 953d 5d91 fa3d
00000220: f555 f13d 02dd 293d 3d66 a0bc 586e 08bc
00000230: da52 c7bd b40f 83bd 8b8a b73c 8fef f93d
00000240: e7d9 38bd 0cfe ad3d 5c4f 03be 0532 f0bc
00000250: 68c5 fcbc 0a30 0abe e4b0 e03c afe8 9fbd
00000260: 15ce 91bd daf3 6d3d 2782 773d ceb2 003c
00000270: fd4e 983c c590 a8bc 86bd 09bd 1c0e cd3d
00000280: 9823 543d 3777 9fbd 0635 d63d 9ef3 da3c
00000290: 5e8c d4bb 31ed f1bd 149b 78bd ed10 ca3d
000002a0: 0f8f b7bd 361c 453c b341 a13d 1fd3 07be
000002b0: bdc6 f1bd 6a32 cabd 253d dd3c 3b23 e03d
000002c0: 52ba ba3c 79e9 ae3d 94d8 5f3d dfc3 793d
000002d0: ad21 01be d5f3 d63d 54e8 833b 6ae1 5fbd
000002e0: 9880 65bd 7461 173d 0819 0fbd 9565 a2bd
000002f0: 213f 44bc fad9 b8bd 458d 1b3d 6e5c 26bd
00000300: fc85 dcbd 9ce2 ba3d 4a29 fe3d dc72 833d
00000310: 433f 9bbc abe7 c93c 214c 9dbd b84a 4cbd
00000320: 97aa da3d 8a3c 943c 11e0 bb3c ea8c f9bc
00000330: b77c a4bb 1571 563d 9356 fd3d 5760 d5bd
00000340: 2ffe 283d 7c2d adbd 14b7 573d 6396 65bd
00000350: e1c0 cabc 5b7a c0bd 976b 6ebd 9246 e2bd
00000360: 1d7e 403d baa4 c53d d6f1 4bbd 141f 223c
00000370: c578 66bd 1271 fbbd 0843 0d3d b362 acbc
00000380: db6a 383d 3ef8 5ebd 6848 bcbd ea28 f63d
00000390: 2381 debc 35f0 adbd 5edf 08be 7786 dfbb
000003a0: 6c5b 69bd 3819 dfbd a6c7 ae3c d50a b43b
000003b0: 9a17 88bd dc3b a53d 6a9d 8d3d da66 b03d
000003c0: 8f29 adbd 5356 53bd 793e ce3d ab94 8abd
000003d0: 640a 813b 8178 853d 7300 fc3d 18b1 963d
000003e0: 5fdd 973d 8db6 ddbb fe57 563d ce33 84bd
000003f0: b2f7 d7bd ab97 893d b8a2 083d 176f 7dbd

lstm.weight_hh_l0 f4 [256, 64]
-0.014533043 -0.036547445 0.0748309 -0.045218315 -0.03259202 -0.101018384 -0.09367734 -0.09488512
0.00040710854 -0.07856447 -0.03648155 0.09278388 -0.06438576 -0.09928527 0.131321 0.026182102
0.018801983 0.0453036 0.09432508 -0.023322998 -0.008074824 0.08421207 -0.08633982 0.009489473
-0.07340777 0.060506888 -0.1005601 -0.08100762 -0.12528335 -0.036940526 0.054295067 -0.021110177
-0.060293663 0.106686026 -0.018961426 0.022016542 0.12935126 -0.12556045 -0.04053074 0.075150855
-0.09993821 0.10139217 0.007618664 0.014488205 0.040880166 0.08530203 0.03537002 0.006936613
0.031195646 0.09927277 0.054576594 -0.13323413 -0.080784366 -0.047065664 0.021284098 0.03227223
-0.086349346 -0.126525 0.078975216 0.05617505 0.011465439 -0.054760356 0.0053234017 -0.06747114
-0.03166397 0.10334837 -0.10632739 0.045515157 0.09073501 -0.014296214 0.069113016 0.11467356
-0.12559862 -0.046196103 -0.030300323 0.020266274 0.041767225 -0.08523962 0.026353057 0.12816355
-0.09428672 0.027051603 0.07185332 0.02129062 -0.114916086 0.07997432 -0.117585056 -0.004515302
-0.10911971 0.094097644 0.066102475 -0.07495795 -0.027607609 -0.09546725 0.08794175 -0.09919014
-0.080508664 -0.008570036 0.09979805 -0.08560852 0.07684515 0.077166215 0.08730896 -0.053579494
0.06048239 0.07808222 0.12176625 0.052453864 -0.08716308 -0.0870194 -0.03630385 0.107426725
0.024810502 0.07768258 0.07043398 0.022416083 -0.09284479 0.100398034 0.025666574 -0.07800482
0.011197571 -0.08630205 -0.03529772 -0.068662606 0.10223786 0.058348797 0.048097774 0.07747237
-0.0006778388 -0.013732374 0.070273854 -0.10080823 0.023753844 -0.05629965 -0.030595439 0.02611826
-0.09316299 -0.0024669927 -0.025513632 0.09098635 0.00076119107 0.090003625 -0.10974058 0.120640665
0.008494943 -0.13686134 -0.07604971 0.04513288 -0.002022699 0.11216428 -0.045309737 -0.100058906
0.0034805646 -0.06564202 -0.03217336 0.0690035 0.1014007 -0.111722894 -0.10201829 0.042223755
-0.008516938 -0.030012902 0.10337276 -0.11424061 -0.06761601 0.1146563 -0.069872685 -0.0903479
-0.06791738 -0.05430801 0.0026535846 0.10652797 0.09958648 -0.0037204386 0.0018255176 0.037112836
-0.10403391 0.04454761 0.055184267 -0.039416455 -0.02610518 -0.045588937 0.11464642 0.082544684
-0.08102933 0.111845955 0.096844465 -0.014212053 0.024551416 0.02034974 0.059365276 0.085519865
-0.028576877 0.09850365 0.084190845 -0.011363784 0.06123731 0.019786095 0.119946 0.07786332
-0.010271512 0.08672349 0.084173374 0.11056316 0.13130799 0.10937314 -0.059269942 -0.084381856
0.07385672 0.00011297984 -0.023163069 0.06567904 0.06771206 -0.12932254 0.039112676 0.12575635
-0.114832565 -0.051369306 0.112573944 0.04457412 -0.024808157 0.07586133 -0.10497702 0.012534169
-0.01601548 0.09602007 -0.11863119 -0.09077408 0.019607337 -0.13280815 -0.07062033 -0.016561449
0.132697 0.07070681 0.02844673 0.0659897 0.12460125 -0.00517746 -0.008531258 0.01710279
-0.11877085 -0.08147675 0.033112142 -0.066746354 -0.0135358125 -0.13407539 -0.059197113 0.12983118
-0.02526396 0.08231343 0.002990528 -0.08568014 0.11162108 0.07039449 -0.056068905 -0.07211645
00000000: 001c 6ebc c6b2 15bd f140 993d d736 39bd
00000010: 367f 05bd bae2 cebd e8d9 bfbd 2153 c2bd
00000020: 2f71 d539 69e6 a0bd ae6d 15bd 7a05 be3d
00000030: aedc 83bd 1356 cbbd 0379 063e d97b d63c
00000040: 9e06 9a3c 4590 393d 822d c13d df0f bfbc
00000050: 444c 04bc 6177 ac3d eed2 b0bd bc79 1b3c
00000060: d056 96bd 12d6 773d 74f2 cdbd 53e7 a5bd
00000070: 474a 00be f34e 17bd 8164 5e3d 40ef acbc
00000080: 7df6 76bd 347e da3d fe54 9bbc 095c b43c
00000090: a874 043e eb92 00be 9003 26bd b1e8 993d
000000a0: 67ac ccbd b3a6 cf3d fca5 f93b f05f 6d3c
000000b0: f671 273d d5b2 ae3d 27e0 103d 874c e33b
000000c0: 038e ff3c 864f cb3d b58b 5f3d 876e 08be
000000d0: 4672 a5bd edc7 40bd fd5b ae3c e32f 043d
000000e0: edd7 b0bd c58f 01be c2bd a13d cf17 663d
000000f0: 89d9 3b3c 654c 60bd ee6f ae3b 4f2e 8abd
00000100: 14b2 01bd 4fa8 d33d 2dc2 d9bd 1a6e 3a3d
00000110: 47d3 b93d ab3a 6abc 208b 8d3d f9d9 ea3d
00000120: ed9c 00be 2038 3dbd 6238 f8bc 7505 a63c
00000130: 1c14 2b3d 1c92 aebd 5ee2 d73c 4e3d 033e
00000140: 6519 c1bd 539b dd3c d527 933d ab69 ae3c
00000150: 2059 ebbd 94c9 a33d 6fd0 f0bd 19f5 93bb
00000160: 287a dfbd 44b6 c03d bc60 873d 8e83 99bd
00000170: 5a29 e2bc 5584 c3bd ce1a b43d 3324 cbbd
00000180: bae1 a4bd 5669 0cbc ec62 cc3d 8553 afbd
00000190: fd60 9d3d 5209 9e3d 0acf b23d 2c76 5bbd
000001a0: 62bc 773d 92e9 9f3d 9560 f93d ddd9 563d
000001b0: 8f82 b2bd 3a37 b2bd 59b3 14bd 8b02 dc3d
000001c0: 653f cb3c 0b18 9f3d b13f 903d efa1 b73c
000001d0: 6925 bebd 7c9d cd3d b542 d23c fec0 9fbd
000001e0: 0476 373c 21bf b0bd 5894 10bd fb9e 8cbd
000001f0: 1562 d13d 26ff 6e3d 2c02 453d d5a9 9e3d
00000200: feb0 31ba c0fd 60bc bdeb 8f3d 8c74 cebd
00000210: 6c97 c23c 769a 66bd 49a3 fabc f6f5 d53c
00000220: 3dcc bebd 45ad 21bb f701 d1bc 0d57 ba3d
00000230: ab8a 473a d253 b83d abbf e0bd 7412 f73d
00000240: 602e 0b3c 6125 0cbe f3bf 9bbd 41dd 383d
00000250: 428f 04bb 63b6 e53d b496 39bd afeb ccbd
00000260: 2f1a 643b 536f 86bd 37c8 03bd b551 8d3d
00000270: 2cab cf3d f9ce e4bd f7ee d0bd d1f2 2c3d
00000280: a18a 0bbc 9edd f5bc 19b5 d33d fbf6 e9bd
00000290: 437a 8abd ecd0 ea3d 6919 8fbd 5208 b9bd
000002a0: 4418 8bbd 1372 5ebd c3e7 2d3b 562b da3d
000002b0: fff3 cb3d 9ad2 73bb 3546 ef3a a103 183d
000002c0: bb0f d5bd 8e77 363d e608 623d 2673 21bd
000002d0: 88da d5bc 77bb 3abd becb ea3d 300d a93d
000002e0: b5f2 a5bd 7e0f e53d 6456 c63d acd9 68bc
000002f0: 0d20 c93c 7fb4 a63c 0129 733d 0a25 af3d
00000300: 0e1a eabc 48bc c93d 406c ac3d 2a2f 3abc
00000310: f9d3 7a3d 7316 a23c 40a6 f53d ce76 9f3d
00000320: d849 28bc 169c b13d 1763 ac3d f06e e23d
00000330: 9a75 063e 06ff df3d 0ac5 72bd 65d0 acbd
00000340: 3142 973d 97ef ec38 7ac0 bdbc bc82 863d
00000350: 9fac 8a3d 216d 04be 9d34 203d 46c6 003e
00000360: 562d ebbd 9f68 52bd 2b8d e63d 5a93 363d
00000370: 7a3a cbbc 2f5d 9b3d 31fe d6bd 1d5c 4d3c
00000380: e532 83bc 2ca6 c43d e9f4 f2bd c3e7 b9bd
00000390: 919f a03c dcfe 07be 64a1 90bd e0ab 87bc
000003a0: b9e1 073e bbce 903d 1e09 e93c 9c25 873d
000003b0: f12e ff3d afa7 a9bb b1c6 0bbc 261b 8c3c
000003c0: 223e f3bd 48dd a6bd 99a0 073d 50b2 88bd
000003d0: 50c5 5dbc 0f4b 09be ac78 72bd 77f2 043e
000003e0: 5df6 cebc f293 a83d bcfc 433b 1279 afbd
000003f0: 9899 e43d fd2a 903d 82a8 65bd cab1 93bd

lstm.bias_ih_l0 f4 [256]
-0.13566582 -0.074609 -0.032082044 -0.055295628 -0.100814484 0.09058111 -0.07191865 -0.04082415
-0.027008563 -0.11154391 0.06216732 -0.08788764 -0.076984785 0.09818896 0.005480705 -0.058606483
0.011623731 0.076317936 -0.11171442 0.0807201 -0.034202784 -0.02938547 0.029937025 -0.07548621
-0.0286627 0.07484441 -0.07567449 0.12184777 -0.067413226 -0.03379073 -0.060474426 0.028452747
0.07317339 -0.07991517 0.08733536 0.09358798 -0.05747762 0.11291559 -0.042343862 -0.1067331
-0.020236809 0.012915688 0.039337702 -0.056580458 0.018432561 -0.09664611 0.018815283 -0.045340598
0.074583806 -0.032627925 0.016114345 -0.06841429 0.112035945 -0.028562414 -0.025917511 0.09299645
-0.12281759 0.073875956 0.036058888 0.084546514 0.007140095 0.022819493 0.017924463 0.021920783
-0.091659196 -0.023328403 -0.01376085 -0.07398997 -0.062093794 0.10690403 -0.0027022602 0.0682583
0.029379085 0.08430164 0.033543427 0.11276724 -0.059201986 -0.081025295 0.0045354003 0.03224157
-0.106606126 0.032544233 0.042113673 0.038667947 -0.049161203 -0.09968105 0.06796151 0.048185218
-0.005206865 -0.12649082 -0.06797035 0.1107161 0.09784655 0.035498027 0.014443312 0.04075034
0.068170026 0.01981224 0.07037114 0.05103713 -0.027753472 -0.11315236 -0.048661023 0.06730568
0.09850169 -0.032979243 -0.00043095133 -0.04356632 0.113868214 0.00063364534 0.028882097 -0.013581579
-0.09723161 -0.09290441 -0.036629062 -0.09400077 0.019112613 -0.07095746 0.077520944 0.10292589
0.08698388 -0.095105566 -0.0765089 -0.116894394 -0.07119652 -0.12156784 -0.036306765 -0.11473192
0.012307608 -0.10954945 0.08866331 0.022269772 0.08059651 0.03724372 0.10059188 -0.09005765
-0.08068582 -0.102861665 -0.003173444 0.07798648 -0.07335968 -0.046608195 -0.095306456 -0.07488477
-0.09247349 -0.045501422 -0.11388169 0.09744453 -0.07133567 -0.06558393 0.036499087 -0.08748111
0.033027362 0.06607269 -0.04153334 -0.034452192 0.044504073 0.01915 -0.09380266 0.028231248
0.12323456 -0.010573591 0.03131131 -0.10186529 0.036939964 -0.027831221 0.04265109 -0.07616884
-0.09599749 -0.05887869 -0.053341217 0.0563216 -0.019089488 0.08212786 0.033050172 0.087571
0.049525436 -0.042165406 -0.102412984 -0.112118624 -0.1061387 0.06915744 -0.10507518 0.050707594
-0.04056789 0.08706541 -0.046434037 0.107261315 -0.09981248 0.03949406 0.004788057 0.0695034
-0.06205408 -0.03057695 -0.022246595 -0.05662596 -0.08336386 0.08838183 0.053849015 -0.069853574
0.10931344 -0.015595085 -0.1255005 -0.015506605 0.08023453 0.03598738 0.041806664 -0.052906778
0.07454331 -0.009569618 0.009787721 -0.12598366 0.068882555 0.06851634 -0.012534242 0.032127593
-0.027158545 0.0017682544 -0.03782269 -0.096187286 -0.03654767 -0.12649553 0.04820906 -0.073149055
-0.0344063 0.10848426 0.004386034 -0.05163242 -0.08525807 -0.010232146 -0.0937709 -0.024532212
-0.10751415 -0.012117159 -0.006261703 -0.02910327 0.041872583 0.107419126 -0.105510525 0.06323271
0.060467374 0.08526995 0.0075599267 0.11253941 -0.010029509 0.065863274 0.06431566 0.077244855
0.095830604 -0.06465224 0.041917905 -0.050278135 0.07892271 0.06649426 -0.09084102 -0.11147553
00000000: fbeb 0abe 9acc 98bd 7668 03bd ab7d 62bd
00000010: d377 cebd 9782 b93d 164a 93bd 3937 27bd
00000020: 1041 ddbc 2271 e4bd 29a3 7e3d 6ffe b3bd
00000030: 33aa 9dbd 4b17 c93d 7c97 b33b 5a0d 70bd
00000040: 7671 3e3c 944c 9c3d 88ca e4bd 9450 a53d
00000050: 3818 0cbd ccb9 f0bc 7e3e f53c 8498 9abd
00000060: 0ace eabc 0748 993d 3afb 9abd 538b f93d
00000070: f20f 8abd 2668 0abd 08b4 77bd bc15 e93c
00000080: eedb 953d 91aa a3bd e2dc b23d 0eab bf3d
00000090: a76d 6bbd 4a40 e73d c270 2dbd e296 dabd
000000a0: aac7 a5bc 529c 533c 9220 213d e9c0 67bd
000000b0: e2ff 963c 65ee c5bd 8222 9a3c 10b7 39bd
000000c0: 65bf 983d dca4 05bd 3b02 843c cb1c 8cbd
000000d0: 1a73 e53d b9fb e9bc f650 d4bc ec74 be3d
000000e0: ca87 fbbd 474c 973d 7cb2 133d b926 ad3d
000000f0: 75f7 e93b f2ef ba3c 53d6 923c 3793 b33c
00000100: d1b7 bbbd 351b bfbc 3075 61bc 0e88 97bd
00000110: 1056 7ebd 80f0 da3d 6718 31bb 02cb 8b3d
00000120: 68ac f03c 57a6 ac3d d564 093d 83f2 e63d
00000130: c87d 72bd 97f0 a5bd b29d 943b bd0f 043d
00000140: 5054 dabd 1a4d 053d 637f 2c3d 4862 1e3d
00000150: 425d 49bd 9425 ccbd 672f 8b3d dd5d 453d
00000160: 599e aabb cf86 01be 0a34 8bbd 1fbf e23d
00000170: c663 c83d 6166 113d a4a3 6c3c d4e9 263d
00000180: ba9c 8b3d 474d a23c bf1e 903d 4f0c 513d
00000190: 405b e3bc 6dbc e7bd c850 47bd 8fd7 893d
000001a0: 41bb c93d 3e15 07bd 4ff1 e1b9 9972 32bd
000001b0: bd33 e93d 381b 263a 269a ec3c 4585 5ebc
000001c0: 5e21 c7bd ab44 bebd 5b08 16bd 7a83 c0bd
000001d0: 0e92 9c3c 2552 91bd 4dc3 9e3d cfca d23d
000001e0: 9b24 b23d b5c6 c2bd b3b0 9cbd 5466 efbd
000001f0: 7bcf 91bd 8ff8 f8bd 67b6 14bd 92f8 eabd
00000200: d9a5 493c 765b e0bd 1c95 b53d 196f b63c
00000210: c80f a53d df8c 183d 1e03 ce3d 2570 b8bd
00000220: 9b3e a5bd 23a9 d2bd 8ef9 4fbb 60b7 9f3d
00000230: 9a3d 96bd 3ce8 3ebd 0830 c3bd 305d 99bd
00000240: be62 bdbd b35f 3abd ce3a e9bd ff90 c73d
00000250: 7018 92bd de50 86bd 1180 153d 4c29 b3bd
00000260: b347 073d 1e51 873d dd1e 2abd be1d 0dbd
00000270: e749 363d 76e0 9c3c 9c1b c0bd 3845 e73c
00000280: 6762 fc3d db3c 2dbc 4a40 003d c09e d0bd
00000290: 5c4e 173d 4dfe e3bc e9b2 2e3d 69fe 9bbd
000002a0: 559a c4bd c82a 71bd 527c 5abd 7ab1 663d
000002b0: 8f61 9cbc a732 a83d 9e5f 073d 6d58 b33d
000002c0: 2fdb 4a3d a2b5 2cbd e6bd d1bd 739e e5bd
000002d0: 3f5f d9bd 6aa2 8d3d a831 d7bd c4b2 4f3d
000002e0: 842a 26bd 5a4f b23d 9e31 3ebd d2ab db3d
000002f0: 7c6a ccbd 86c4 213d 22e5 9c3b cc57 8e3d
00000300: 6b2c 7ebd 837c fabc 7e3e b6bc 9ff0 67bd
00000310: acba aabd 8801 b53d c990 5c3d 640f 8fbd
00000320: badf df3d 8782 7fbc 3483 00be 6a0f 7ebc
00000330: 0052 a43d 8167 133d 773d 2b3d c7b4 58bd
00000340: 2aaa 983d e3c9 1cbc ad5c 203c dc01 01be
00000350: 4c12 8d3d 4b52 8c3d 6c5c 4dbc 3998 033d
00000360: 997b debc c6c4 e73a f7eb 1abd d7fd c4bd
00000370: 02b3 15bd 0b88 01be dd76 453d 2ccf 95bd
00000380: 9fed 0cbd ff2c de3d b8b8 8f3b 847c 53bd
00000390: c89b aebd bba4 27bc f50a c0bd c7f7 c8bc
000003a0: 6130 dcbd 0c87 46bc f92e cdbb fb69 eebc
000003b0: 9682 2b3d 8ffe db3d e715 d8bd 2780 813d
000003c0: a3ac 773d 03a2 ae3d 43b9 f73b 107b e63d
000003d0: cf52 24bc 53e3 863d eeb7 833d 8d32 9e3d
000003e0: d642 c43d 6568 84bd 1cb2 2b3d 72f0 4dbd
000003f0: 3ba2 a13d 252e 883d db0a babd 484d e4bd

lstm.bias_hh_l0 f4 [256]
0.032064892 0.00785973 -0.010798974 0.10498531 0.057531856 -0.10280717 0.01800029 0.12612846
-0.0124889165 0.06638327 -0.08619128 0.03688232 -0.11511909 0.0856776 0.09271087 -0.13442175
0.11002612 -0.014056992 0.022050848 0.11875882 0.10070597 0.049763262 -0.012921595 -0.111269176
0.08299661 -0.11948136 0.0066466634 0.0565176 -0.060107447 0.08680748 -0.02396858 0.04898261
0.083142936 0.07241622 -0.055905934 0.04583229 -0.011052156 -0.12018715 0.12031626 -0.066758424
-0.012540492 0.10718489 0.10960236 0.02864938 -0.11115269 -0.12835743 0.061975837 0.02239771
-0.117385276 0.11192351 0.0329616 -0.011373869 -0.12104216 -0.098635115 -0.07623507 -0.07245155
0.09079386 -0.005900123 0.064128384 -0.011277959 -0.10407229 0.016345268 0.106819965 0.12606934
0.05395166 -0.0224311 -0.0695163 -0.08516349 0.09744451 0.10238239 -0.09029487 -0.0514501
-0.07730576 -0.11206872 0.028044295 0.009572843 0.09823187 0.05972652 -0.0037743815 -0.0181163
-0.08667569 0.022977792 -0.037069257 0.022243422 -0.01641477 -0.046006136 0.027086454 0.1282567
-0.08660313 -0.0066696913 -0.03569663 -0.08613772 0.02260397 0.070953496 -0.012217937 -0.010355683
0.09197043 -0.09458575 -0.09088845 -0.06857113 0.084838904 -0.045114834 0.10497531 -0.015133669
0.011883202 0.08725604 -0.12478416 -0.03687733 0.02361669 -0.07335323 0.08749516 0.09138511
0.008121923 0.081147335 -0.01578589 0.10958114 -0.032506682 -0.1143512 -0.03137528 -0.097019725
-0.028713755 0.093053944 0.074398585 0.05723018 0.080368854 0.10270842 -0.088468 0.015548601
-0.067102075 0.06369131 -0.056958456 -0.087287255 0.06963828 -0.12016817 -0.09182793 -0.11446794
-0.08405975 0.027370978 0.0051038833 0.09321892 0.10287291 0.069461584 -0.00047267502 0.068169385
0.025377396 0.026948499 -0.02146378 0.09123715 0.06215828 0.06935164 -0.042649172 -0.058324687
-0.0009935014 0.07287681 0.040493615 0.116577365 0.079966635 -0.0774183 0.0030734767 -0.023374096
-0.013967704 0.09939182 -0.0031431855 -0.07039462 -0.09452466 0.06537759 0.094684795 0.023316763
-0.054522526 0.12310065 0.048667613 0.030401913 -0.010136554 0.042636655 -0.09033927 0.0334302
0.08262826 -0.10303549 -0.08576015 0.12157568 0.0060026953 -0.009377066 -0.012226043 -0.05959415
-0.0024694349 -0.035949122 0.0803605 0.017257717 -0.06139783 -0.07658166 0.043524332 -0.095753476
0.032744695 0.12212955 0.058101173 0.055971656 0.048467133 -0.0030131233 -0.12190062 -0.031021824
-0.13287945 0.07934581 0.00794228 0.004865816 0.086811066 -0.037700746 0.04958036 -0.020776194
0.0017282309 -0.07511452 -0.002014957 0.016004112 -0.02953994 -0.11667546 0.050736014 -0.060660437
-0.094938956 -0.08754741 0.034412507 -0.024203595 0.05302516 0.045808524 0.04629918 -0.10110818
-0.040229358 -0.0235357 0.02513459 -0.049860865 0.09016502 -0.032230273 0.033938576 -0.10117819
-0.023761733 0.056766577 -0.06374115 -0.109223925 0.058656864 0.11094431 0.06283227 0.014807166
0.06854755 -0.068147756 0.06405784 0.0061101434 -0.06556416 0.0764017 0.04523409 -0.13387182
0.06917797 -0.122573696 -0.070515364 0.013282116 0.08782669 0.069619454 -0.10363763 -0.115125686
00000000: 7a56 033d 19c6 003c 2eee 30bc 8a02 d73d
00000010: 86a6 6b3d 918c d2bd 5875 933c d227 013e
00000020: 509e 4cbc f4f3 873d 0e85 b0bd ea11 173d
00000030: 8fc3 ebbd bd77 af3d 32df bd3d dba5 09be
00000040: 6055 e13d 4c4f 66bc fba3 b43c d337 f33d
00000050: ee3e ce3d 90d4 4b3d 19b5 53bc 18e1 e3bd
00000060: 20fa a93d a5b2 f4bd 41cc d93b 007f 673d
00000070: 3a33 76bd 1fc8 b13d c159 c4bc fda1 483d
00000080: d846 aa3d f54e 943d 9ffd 64bd a4ba 3b3d
00000090: 1a14 35bc ae24 f6bd 5f68 f63d a4b8 88bd
000000a0: a376 4dbc c083 db3d 3477 e03d 1bb2 ea3c
000000b0: 06a4 e3bd 2170 03be 60da 7d3d 677b b73c
000000c0: b167 f0bd 2738 e53d be02 073d 7759 3abc
000000d0: f4e4 f7bd 3501 cabd 2221 9cbd 7a61 94bd
000000e0: 22f2 b93d d255 c1bb be55 833d 30c7 38bc
000000f0: da23 d5bd 83e6 853c 6dc4 da3d 5218 013e
00000100: 6afc 5c3d 6dc1 b7bc 905e 8ebd 326a aebd
00000110: fd90 c73d dcad d13d 84ec b8bd 57bd 52bd
00000120: 7b52 9ebd 4984 e5bd 26bd e53c 6ad7 1c3c
00000130: ca2d c93d cca3 743d 9d5b 77bb a368 94bc
00000140: 0683 b1bd ec3b bc3c efd5 17bd d637 b63c
00000150: 4578 86bc ee70 3cbd 69e4 dd3c b955 033e
00000160: fb5c b1bd 6d8d dabb a136 12bd f968 b0bd
00000170: f62b b93c 1150 913d be2d 48bc e2aa 29bc
00000180: fe5a bc3d 2cb6 c1bd b923 babd 056f 8cbd
00000190: 05c0 ad3d 55ca 38bd 4cfd d63d 35f3 77bc
000001a0: c3b1 423c 4bb3 b23d d68e ffbd af0c 17bd
000001b0: ca77 c13c 383a 96bd aa30 b33d 1e28 bb3d
000001c0: d011 053c 9330 a63d 6951 81bc 146c e03d
000001d0: ba25 05bd f630 eabd 5e83 00bd 47b2 c6bd
000001e0: 1c39 ebbc 1193 be3d 495e 983d 316a 6a3d
000001f0: 6d98 a43d cb58 d23d b62e b5bd 8fbf 7e3c
00000200: d06c 89bd 9770 823d 454d 69bd a9c3 b2bd
00000210: 849e 8e3d bb1a f6bd 4810 bcbd 2b6e eabd
00000220: 8527 acbd 1a39 e03c 7a3e a73b 90e9 be3d
00000230: 08af d23d e041 8e3d 5ed1 f7b9 649c 8b3d
00000240: 42e4 cf3c 19c3 dc3c cfd4 afbc 8bda ba3d
00000250: ae99 7e3d 3c08 8e3d e6b0 2ebd dee5 6ebd
00000260: 6038 82ba 7040 953d a2dc 253d 1dc0 ee3d
00000270: 8cc5 a33d 7c8d 9ebd 626c 493b 087b bfbc
00000280: ccd8 64bc f08d cb3d e7fd 4dbb 0e2b 90bd
00000290: 2596 c1bd b0e4 853d 1aea c13d cc02 bf3c
000002a0: 0353 5fbd 321c fc3d b157 473d 6f0d f93c
000002b0: ca13 26bc c6a3 2e3d cc03 b9bd 1bee 083d
000002c0: 0139 a93d 4504 d3bd 04a3 afbd acfc f83d
000002d0: 42b2 c43b 44a2 19bc be4f 48bc ff18 74bd
000002e0: 3ed6 21bb 633f 13bd 0c94 a43d 0e60 8d3c
000002f0: 4a7c 7bbd d8d6 9cbd 9246 323d 661a c4bd
00000300: 4d1f 063d 0f1f fa3d 7ffb 6d3d 8942 653d
00000310: 7985 463d d277 45bb 08a7 f9bd 7b21 febc
00000320: 8d11 08be 0e80 a23d 5620 023c 6c71 9f3b
00000330: 00ca b13d 196c 1abd c714 4b3d d632 aabc
00000340: ce85 e23a a4d5 99bd 5e0d 04bb 0e1b 833c
00000350: bffd f1bc 8bf3 eebd 91d0 4f3d 1477 78bd
00000360: 5b6f c2bd 0e4c b3bd 21f4 0c3d 9e46 c6bc
00000370: e930 593d b8a1 3b3d 35a4 3d3d ce11 cfbd
00000380: 8ac7 24bd f1cd c0bc 0ee7 cd3c e83a 4cbd
00000390: 70a8 b83d e403 04bd 2d03 0b3d 8336 cfbd
000003a0: f7a7 c2bc 1284 683d b88a 82bd cbb0 dfbd
000003b0: 2e42 703d c536 e33d 35ae 803d c199 723c
000003c0: a862 8c3d 0d91 8bbd c230 833d 9937 c83b
000003d0: 8146 86bd 7f78 9c3d 6247 393d b215 09be
000003e0: 2ead 8d3d eb07 fbbd 5c6a 90bd 3b9d 593c
000003f0: 7bde b33d a594 8e3d f73f d4bd 04c7 ebbd

lstm.weight_ih_l1 f4 [256, 64]
-0.100717835 -0.08268264 0.084512524 -0.050926458 -0.028726645 -0.11359359 -0.07794735 0.044560965
-0.05153381 0.1065084 -0.04659891 -0.11990354 -0.08526865 -0.057116594 0.04742915 0.046018846
0.037810165 0.1284227 0.008713639 0.0065747364 -0.021410566 0.0042129583 -0.09115579 0.0037393544
0.046268214 0.021221966 -0.005463719 0.07902768 -0.03932211 0.10445727 -0.084946774 -0.022174489
0.076336384 0.0049096863 -0.035298523 -0.0047348053 -0.014266169 -0.09357899 -0.056076363 -0.06678879
0.046433043 -0.09063045 0.018447146 -0.032460723 0.07873174 0.07822619 -0.09075619 0.10841278
-0.10364497 0.08962281 0.10772069 -0.04111125 0.09261525 -0.033703744 0.11780303 -0.065340914
-0.07902221 -0.004619721 0.025780171 0.05598263 0.12284696 0.063739195 0.055470325 0.1175883
0.03512423 -0.03458242 -0.06069454 0.10672547 -0.03916417 0.03168055 -0.011278731 0.0811405
-0.058263004 -0.10879804 0.062112343 0.018981423 -0.018411111 0.0024164056 0.10509236 -0.05788298
-0.089462936 0.015370931 -0.044607967 0.07683034 -0.110950544 -0.105004005 -0.0392799 -0.031189747
0.047526814 -0.09706768 -0.10113443 -0.09915353 -0.0017032456 0.101955906 0.0012515237 0.09094939
0.038033463 -0.028773826 -0.05655624 0.033343825 0.09037449 -0.1225685 0.059141546 -0.031521883
-0.08075426 0.02087639 0.097993836 -0.017825143 -0.037781157 0.12094555 0.038323756 0.03374692
0.03908009 0.10222203 0.024632396 -0.11729301 0.029718282 0.11538576 -0.010633758 0.011748902
0.07072497 0.11608992 0.09447266 -0.058489542 0.04135134 0.028913155 0.061458874 0.037171308
-0.09833999 0.09753066 -0.08695937 -0.059491165 -0.09285838 -0.12777846 -0.11675801 0.101953626
-0.11968625 0.07490767 -0.08497951 0.085264854 0.10856801 0.0877212 0.019457722 -0.09330061
0.08801365 0.072616436 0.027512243 -0.05634063 0.0297885 0.107476056 -0.075033255 0.018539326
0.13139237 0.09643285 -0.12303226 -0.10385536 -0.08376089 0.058678262 -0.11131668 -0.08251838
-0.0363693 -0.00072483695 0.121823795 -0.12847178 -0.0976684 0.03718231 0.0054121865 -0.06833594
-0.04194523 -0.0014856047 -0.123900436 -0.11021397 -0.11575253 0.08442276 -0.07993007 -0.06992449
0.04254818 -0.014203634 0.08124949 -0.10087472 -0.09479436 0.027900621 0.011025341 0.015775109
0.08801665 0.12344028 0.015185983 -0.0114548355 0.028547537 0.045741495 0.08122149 0.015566815
-0.07729833 -0.021819744 -0.060217433 0.027040616 0.036417153 0.002980669 0.049267948 0.11120404
-0.1086898 0.040290546 0.03317379 -0.064916626 -0.05388876 -0.102089025 0.07747372 0.08535106
-0.040380318 0.0644748 -0.06776915 0.073282525 0.07107213 -0.07645918 0.012868669 0.01836571
0.026741792 0.08467665 -0.0016070448 0.016019868 0.078513436 0.1325121 -0.09592633 0.042792115
0.046464473 -0.07978543 0.031052338 0.040247332 -0.030157518 0.023406113 0.10521234 6.599287e-05
-0.04741671 -0.008088496 0.11649918 -0.030286787 0.021333152 0.091138445 0.06758853 -0.10804682
0.07823128 0.048742812 0.06297265 -0.010041736 0.12143755 0.07796452 0.13088782 -0.048738558
-0.11725925 0.029669352 0.0079459855 0.046894398 0.03149903 0.013581052 -0.09687391 0.07854738
00000000: 2745 cebd 8455 a9bd e714 ad3d 4398 50bd
00000010: 2454 ebbc c2a3 e8bd dca2 9fbd 8f85 363d
00000020: 1e15 53bd 1321 da3d 80de 3ebd fd8f f5bd
00000030: 54a1 aebd 17f3 69bd 1245 423d 427e 3c3d
00000040: d5de 1a3d 3e81 033e a7c3 0e3c e370 d73b
00000050: 3665 afbc db0c 8a3b e3af babd f50f 753b
00000060: bd83 3d3d b0d9 ad3c ff08 b3bb 44d9 a13d
00000070: 3910 21bd b1ed d53d 93f8 adbd 46a7 b5bc
00000080: 4056 9c3d 6fe1 a03b 2f95 10bd 6d26 9bbb
00000090: a6bc 69bc 57a6 bfbd 54b0 65bd 90c8 88bd
000000a0: 9330 3e3d 759c b9bd 781e 973c 89f5 04bd
000000b0: 1b3e a13d 0d35 a03d 62de b9bd 8507 de3d
000000c0: d043 d4bd 2a8c b73d aa9c dc3d 4564 28bd
000000d0: 10ad bd3d f00c 0abd b742 f13d 75d1 85bd
000000e0: 65d6 a1bd 0761 97bb f030 d33c 0b4e 653d
000000f0: 3097 fb3d b289 823d da34 633d 22d2 f03d
00000100: 6dde 0f3d 4ca6 0dbd d79a 78bd e292 da3d
00000110: 9c6a 20bd 77c3 013d 6dca 38bc fe2c a63d
00000120: 30a5 6ebd 82d1 debd 8369 7e3d ee7e 9b3c
00000130: e6d2 96bc 8f5c 1e3b aa3a d73d b416 6dbd
00000140: 5838 b7bd 5bd6 7b3c d8b6 36bd 3a59 9d3d
00000150: 0a3a e3bd 570c d7bd f6e3 20bd a481 ffbc
00000160: 7aab 423d 6bcb c6bd 911f cfbd 0211 cbbd
00000170: 703f dfba 42ce d03d 2b0a a43a ac43 ba3d
00000180: fac8 1b3d 16b7 ebbc 84a7 67bd 8993 083d
00000190: 4316 b93d 3205 fbbd 683e 723d 171d 01bd
000001a0: 7d62 a5bd f704 ab3c feb0 c83d 0906 92bc
000001b0: 6ac0 1abd 4db2 f73d 5ff9 1c3d 363a 0a3d
000001c0: 7212 203d c959 d13d e1c9 c93c 5137 f0bd
000001d0: c173 f33c 5f4f ec3d 3739 2ebc 777e 403c
000001e0: 41d8 903d 8dc0 ed3d e27a c13d bb92 6fbd
000001f0: 0660 293d 48db ec3c 4dbc 7b3d f140 183d
00000200: 7a66 c9bd 28be c73d c117 b2bd 02ad 73bd
00000210: 892c bebd 5bd8 02be d31e efbd 10cd d03d
00000220: 111e f5bd 3169 993d bd09 aebd 579f ae3d
00000230: e858 de3d 2ca7 b33d cd65 9f3c 6414 bfbd
00000240: 8040 b43d edb7 943d 5b61 e13c 6fc5 66bd
00000250: 0307 f43c 681c dc3d 09ab 99bd c9df 973c
00000260: b98b 063e 967e c53d 56f8 fbbd 1eb2 d4bd
00000270: d48a abbd 9e58 703d 00fa e3bd 65ff a8bd
00000280: faf7 14bd fc02 3eba c17e f93d 1b8e 03be
00000290: 5f06 c8bd 7a4c 183d b658 b13b b7f3 8bbd
000002a0: c3ce 2bbd 9fb8 c2ba 83bf fdbd ddb7 e1bd
000002b0: aa0f edbd d7e5 ac3d 60b2 a3bd 9234 8fbd
000002c0: 0047 2e3d 5cb6 68bc 2266 a63d 6897 cebd
000002d0: 8c23 c2bd d88f e43c a2a3 343c cd3a 813c
000002e0: 1342 b43d 42ce fc3d a1ce 783c 10ad 3bbc
000002f0: 86dc e93c 6f5b 3b3d 7457 a63d f40b 7f3c
00000300: 964e 9ebd 52bf b2bc 8ea6 76bd 4884 dd3c
00000310: 272a 153d 5457 433b 30cd 493d f2be e33d
00000320: c298 debd b307 253d 3de1 073d 02f3 84bd
00000330: 76ba 5cbd 0d14 d1bd 8baa 9e3d 89cc ae3d
00000340: d565 25bd 5d0b 843d 8dca 8abd 2615 963d
00000350: 448e 913d a196 9cbd 1cd7 523c af73 963c
00000360: 9a11 db3c f46a ad3d 7aa3 d2ba 193c 833c
00000370: a7cb a03d 40b1 073e 0675 c4bd c946 2f3d
00000380: 8851 3e3d 8b66 a3bd 7961 fe3c 63da 243d
00000390: e60c f7bc 2dbe bf3c 9179 d73d a765 8a38
000003a0: 0638 42bd 9c85 04bc 1f97 ee3d ff1b f8bc
000003b0: ddc2 ae3c cba6 ba3d db6b 8a3d a747 ddbd
000003c0: b937 a03d 8ba6 473d cef7 803d 1886 24bc
000003d0: 40b4 f83d ddab 9f3d 7507 063e 15a2 47bd
000003e0: 9e25 f0bd 240d f33c e12f 023c 5714 403d
000003f0: 2005 013d 1083 5e3c d465 c6bd 73dd a03d

lstm.weight_hh_l1 f4 [256, 64]
0.114862934 0.13508487 -0.05538733 0.072526395 -0.02944992 -0.046317834 0.041186113 0.08517294
-0.04929091 0.124237254 0.029164279 0.06713133 0.106713794 -0.02495554 0.06551884 -0.012867479
-0.09941135 -0.11090336 -0.03120761 0.07629453 0.07324782 -0.12949543 -0.0043381555 -0.04338599
0.013583088 -0.01120088 0.016842663 0.015181378 -0.1029309 -0.06186023 -0.020510573 -0.11242898
0.08570244 0.06821585 0.075045615 0.014433738 -0.035348725 -0.056966603 0.08320529 0.055050842
0.026315272 0.06864712 0.010898117 0.13288957 -0.04999544 -0.044536848 -0.03812377 0.03471189
0.004248948 -0.10653497 0.13047147 -0.018847317 0.057919975 0.06800716 0.10676209 0.013251144
0.098017566 -0.095201425 -0.098379925 0.06570197 0.09926205 0.0866903 -0.0687047 0.076199464
-0.0056718644 -0.04117948 -0.04975147 -0.088511735 -0.0065361736 0.039483827 -0.113734335 -0.026618076
-0.051449586 -0.11777393 -0.0141868815 -0.0031288967 -0.08930799 0.033136223 -0.016685838 0.12117813
8.214363e-05 -0.011565562 -0.042485032 0.029256431 -0.06624816 0.020079136 0.10708672 -0.07988684
-0.09672254 -0.09083922 -0.012915465 -0.0654828 0.07231161 -0.07199853 0.11521465 0.0466135
-0.019642612 -0.024670884 0.07830896 -0.1080448 0.050717656 -0.088568196 0.008109022 -0.030925408
0.06552717 -0.10687379 0.12554187 0.10341586 0.059901576 -0.085542046 0.04103333 0.06750463
-0.020529691 -0.09137481 0.015454118 -0.039135072 0.0884985 -0.015633268 0.104449496 -0.12161161
0.114387594 -0.028104743 -0.073773675 0.031709414 -0.063753165 -0.03292617 0.08281149 0.07551101
-0.06804891 0.05859274 0.058722276 0.08630596 -0.047030557 -0.06344253 -0.010583804 0.08217695
0.064417236 -0.010071566 -0.028463358 -0.12514998 -0.09440712 -0.05277519 0.043068107 -0.016956566
-0.002079842 0.002693216 -0.06097463 -0.016128322 -0.04323284 0.0037906298 -0.015528127 0.06822497
0.022565207 0.098273285 -0.056785885 -0.111825675 0.030683434 0.07013077 -0.07661056 0.042391755
0.095964395 0.10283435 0.095401414 0.055129066 -0.019100681 0.0867089 -0.07045999 -0.051073976
0.000261123 -0.08287509 -0.0047074948 -0.05524177 0.1046769 -0.086180866 -0.076900475 -0.07031042
-0.016492907 0.050289858 0.040938932 0.03710679 -0.13760222 0.045400042 -0.0796153 0.1003183
0.06560343 0.11782795 0.030478593 -0.04757309 0.12545642 0.019046776 -0.06259864 0.09161901
-0.044094123 0.025758842 -0.06413048 -0.062031798 -0.013012893 0.00849802 -0.111783035 -0.1253357
0.021105329 0.04026306 -0.050108343 0.11835447 0.12716332 -0.069581576 0.02356838 0.07687886
0.05456168 0.053174708 0.047086157 -0.04382689 -0.06705617 -0.08403835 -0.0020369308 -0.13409474
0.11316209 0.0064036553 -0.10547735 -0.03192252 -0.10486638 0.042642023 -0.0640955 0.026928658
-0.09993489 -0.043504454 -0.07677792 0.010557832 0.100850396 -0.10861443 -0.102919064 0.08931456
0.002360283 0.019622931 -0.031364724 -0.04002082 -0.017899243 -0.064857416 0.009516295 -0.08857171
0.005443351 -0.074237615 0.023405153 0.01691099 0.06381336 -0.104205064 0.10164411 0.05630595
0.080656074 0.10367824 0.10142709 -0.061737955 -0.008268988 -0.034671474 0.008790787 -0.03245773
00000000: 423d eb3d b053 0a3e d3dd 62bd b888 943d
00000010: f540 f1bc c5b7 3dbd c5b2 283d 266f ae3d
00000020: 44e5 49bd 1a70 fe3d ede9 ee3c 277c 893d
00000030: c38c da3d 906f ccbc be2e 863d 1ed2 52bc
00000040: 2e98 cbbd 4d21 e3bd 1aa7 ffbc 4e40 9c3d
00000050: f402 963d 739a 04be 1627 8ebb 82b5 31bd
00000060: 9a8b 5e3c e583 37bc a0f9 893c 51bb 783c
00000070: 70cd d2bd 2761 7dbd ca05 a8bc 2a41 e6bd
00000080: c384 af3d c0b4 8b3d 84b1 993d 7c7b 6c3c
00000090: d3c9 10bd d055 69bd 8967 aa3d fe7c 613d
000000a0: 2093 d73c dc96 8c3d 048e 323c 3414 083e
000000b0: 05c8 4cbd 456c 36bd ac27 1cbd 0e2e 0e3d
000000c0: c23a 8b3b 022f dabd 509a 053e b065 9abc
000000d0: 7f3d 6d3d 5747 8b3d 15a6 da3d 541b 593c
000000e0: 6fbd c83d f7f8 c2bd 6a7b c9bd c18e 863d
000000f0: e749 cb3d af8a b13d 0db5 8cbd 770e 9c3d
00000100: 0cdb b9bb d0ab 28bd 33c8 4bbd a445 b5bd
00000110: 662d d6bb cbb9 213d 8ced e8bd 270e dabc
00000120: cdbc 52bd 7533 f1bd 1870 68bc 2d0e 4dbb
00000130: 1ce7 b6bd d9b9 073d bdb0 88bc 3d2c f83d
00000140: 8744 ac38 7c7d 3dbc c904 2ebd 2fab ef3c
00000150: 1ead 87bd 007d a43c 4850 db3d b69b a3bd
00000160: 7816 c6bd ea09 babd 639b 53bc d91b 86bd
00000170: 1c18 943d f773 93bd a9f5 eb3d cced 3e3d
00000180: 8be9 a0bc 981a cabc 7360 a03d 9846 ddbd
00000190: 51bd 4f3d 3e63 b5bd b4db 043c 4857 fdbc
000001a0: 1c33 863d a5e0 dabd 0c8e 003e b2cb d33d
000001b0: 5b5b 753d ab30 afbd 9112 283d de3f 8a3d
000001c0: e22d a8bc b722 bbbd 4533 7d3c 194c 20bd
000001d0: b43e b53d 5711 80bc 9ee9 d53d 820f f9bd
000001e0: 0b44 ea3d eb3b e6bc a716 97bd bbe1 013d
000001f0: 0591 82bd 97dd 06bd 1299 a93d 84a5 9a3d
00000200: 3a5d 8bbd f1fe 6f3d c586 703d 2ec1 b03d
00000210: 1da3 40bd 28ee 81bd b167 2dbc 644c a83d
00000220: 2fed 833d 3603 25bc fd2b e9bc 5127 00be
00000230: 8558 c1bd cc2a 58bd 2f68 303d 7fe8 8abc
00000240: f54d 08bb ab80 303b 89c0 79bd 8b1f 84bc
00000250: eb14 31bd 376c 783b af69 7ebc 88b9 8b3d
00000260: abda b83c 8143 c93d 5198 68bd dc04 e5bd
00000270: d35b fb3c b9a0 8f3d ffe5 9cbd faa2 2d3d
00000280: fb88 c43d d19a d23d d161 c33d 04cf 613d
00000290: 0879 9cbc 7094 b13d 544d 90bd f232 51bd
000002a0: 56e7 8839 6aba a9bd 5441 9abb 3245 62bd
000002b0: d860 d63d 987f b0bd ff7d 9dbd e9fe 8fbd
000002c0: 221c 87bc bdfc 4d3d 95af 273d 4afd 173d
000002d0: 99e7 0cbe 65f5 393d 590d a3bd ae73 cd3d
000002e0: 175b 863d c84f f13d 3eae f93c 00dc 42bd
000002f0: a677 003e fc07 9c3c b733 80bd bfa2 bb3d
00000300: 0a9c 34bd 3504 d33c d756 83bd 0e15 7ebd
00000310: 0734 55bc 473b 0b3c 81ee e4bd 0058 00be
00000320: 15e5 ac3c e1ea 243d 683e 4dbd d463 f23d
00000330: 1a37 023e c980 8ebd 7a12 c13c aa72 9d3d
00000340: 117c 5f3d b9cd 593d 6add 403d d383 33bd
00000350: bf54 89bd 4c1c acbd 077e 05bb 2250 09be
00000360: 87c1 e73d c1d5 d13b 8204 d8bd 30c1 02bd
00000370: 2fc4 d6bd 67a9 2e3d 8044 83bd 7d99 dc3c
00000380: aaaa ccbd ba31 32bd be3d 9dbd c2fa 2c3c
00000390: a78a ce3d 3e71 debd 3bc7 d2bd 8dea b63d
000003a0: faae 1a3b 45c0 a03c 4c78 00bd dfec 23bd
000003b0: 6fa1 92bc f7d3 84bd 3cea 1b3c 1665 b5bd
000003c0: 235e b23b e409 98bd 2abc bf3c eb88 8a3c
000003d0: 94b0 823d 7769 d5bd ca2a d03d 11a1 663d
000003e0: 032f a53d 4255 d43d 02b9 cf3d f0e0 7cbd
000003f0: a67a 07bc ad03 0ebd 3c07 103c 66f2 04bd

lstm.bias_ih_l1 f4 [256]
0.018606536 0.026084865 0.0054585636 -0.08124508 0.05843659 -0.11368529 0.08250681 -0.028750801
-0.0021053595 -0.1392312 -0.10081164 0.009907698 -0.12485803 -0.013286465 0.020344468 -0.10700442
0.0047131544 -0.03460354 0.11484886 -0.020387892 -0.1033922 -0.053853728 -0.041925915 -0.063889526
0.10077505 -0.044857 -0.06717078 -0.06324012 0.028692992 0.05320372 -0.015836295 0.04043029
0.03376701 0.101608515 0.04940715 0.02663455 0.07645201 -0.09407343 -0.09983849 0.10094132
0.100706056 0.012394888 -0.12129968 0.035675753 -0.06031617 0.09067282 0.047868785 -0.026148072
-0.024723524 0.067235574 0.086415164 0.07667808 0.06409819 -0.090690784 0.069605194 0.032306742
0.07939996 -0.12709324 0.021931957 -0.112448014 0.013899653 -0.006867357 -0.009109252 0.0779171
0.07659971 0.04193724 0.06912902 0.043958858 -0.11968818 0.077993944 -0.12882315 0.08410955
-0.100616254 -0.13912472 -0.05555231 0.06727481 0.048932716 -0.0805595 -0.106676534 0.08222374
-0.036374602 -0.06775256 0.030045638 0.123494595 0.00012929499 0.08211553 0.07416942 0.024675962
0.0816931 -0.07336181 -0.017583558 -0.06900982 -0.06794945 0.0066527375 0.062756434 0.08226471
0.033444174 0.005935136 0.091418244 -0.039806116 0.02447241 -0.08145051 -0.13205633 -0.028016848
-0.13092096 -0.1188068 0.029749332 -0.015501871 -0.00020807766 -0.07648814 -0.0005352389 0.12332698
0.102032274 0.09106451 0.024893194 -0.043387186 0.053241715 -0.09146773 -0.043802865 -0.012865279
-0.023571327 -0.1269161 -0.048142225 0.10135293 -0.08917533 -0.105018914 0.012361145 0.048890628
-0.059039485 0.0332719 0.09630949 0.11253003 0.038317513 0.0007755219 0.10333511 -0.099370755
0.04758021 0.01638531 0.102952294 0.06093807 -0.0096236775 -0.028964695 0.082784854 -0.0010188395
-0.11381898 0.123156406 -0.05017577 -0.065304175 -0.04119027 0.06794358 0.023691194 0.03359158
-0.07179833 0.0072184326 -0.10805797 -0.03759459 0.026716718 -0.04102432 0.08086355 0.0044002123
0.09631185 0.117108755 0.03902889 -0.07046849 0.09430112 0.09694005 -0.07342872 -0.017129786
0.009939515 0.027089594 0.04257093 -0.07157536 -0.09590409 -0.05774404 0.13340695 -0.07845857
-0.122060366 0.11004922 -0.042842533 -0.07202567 -0.01885232 0.06575437 -0.10490536 0.016232593
-0.031350367 -0.060251635 0.084922105 0.04356907 -0.041584756 0.09124311 -0.0059185657 -0.10821339
0.10095043 -0.08510066 -0.0036860227 -0.05273056 0.086050175 0.012855878 -0.056574825 -0.10908507
-0.0032615766 0.035204083 0.0064529222 -0.035412498 0.11467555 0.061942372 0.028182855 0.09303033
0.11016866 0.098853365 0.10958318 -0.0054780054 0.062123254 0.09287667 0.09131197 -0.08760667
-0.013472659 -0.028414948 0.039361622 0.11277582 0.045457143 -0.01707819 0.06621746 0.115353465
-0.0121885175 0.014447791 0.10997907 -0.052025124 0.06455943 -0.003139133 0.113177024 0.025538929
0.09934047 0.03148893 0.114650786 0.014112119 0.11687069 0.061101396 -0.09660579 -0.039997682
0.05627941 0.0047771037 -0.09074369 0.0806241 0.009981018 -0.1100763 -0.028747534 -0.036887877
0.090348974 -0.031903975 -0.055803593 0.12675875 -0.08059696 0.06984965 -0.05417733 -0.04716137
00000000: bc6c 983c edaf d53c c0dd b23b d263 a6bd
00000010: 355b 6f3d d5d3 e8bd 55f9 a83d cd86 ebbc
00000020: 12fa 09bb a092 0ebe 5576 cebd e653 223c
00000030: 91b5 ffbd 79af 59bc 71a9 a63c 2225 dbbd
00000040: ce70 9a3b 71bc 0dbd e135 eb3d 8204 a7bc
00000050: 4abf d3bd ba95 5cbd 82ba 2bbd 83d8 82bd
00000060: 2663 ce3d f9bb 37bd d590 89bd 0984 81bd
00000070: 910d eb3c 25ec 593d 1ebb 81bc 3b9a 253d
00000080: 474f 0a3d 2018 d03d 275f 4a3d b330 da3c
00000090: df92 9c3d 92a9 c0bd 1f78 ccbd 53ba ce3d
000000a0: fa3e ce3d ee13 4b3c f76b f8bd bd20 123d
000000b0: 170e 77bd acb2 b93d 0f12 443d 7b34 d6bc
000000c0: fd88 cabc ceb2 893d 6ffa b03d 6609 9d3d
000000d0: e945 833d 17bc b9bd 2b8d 8e3d 1354 043d
000000e0: 729c a23d bb24 02be a6aa b33c 254b e6bd
000000f0: 5fbb 633c 9107 e1bb f93e 15bc 0093 9f3d
00000100: 4fe0 9c3d 62c6 2b3d 8493 8d3d 340e 343d
00000110: 141f f5bd 4abb 9f3d 37ea 03be a141 ac3d
00000120: e50f cebd b676 0ebe d28a 63bd 60c7 893d
00000130: ac6d 483d 61fc a4bd 3a79 dabd ec64 a83d
00000140: 89fd 14bd dbc1 8abd 4522 f63c bcea fc3d
00000150: 5c93 0739 302c a83d 23e6 973d 3e25 ca3c
00000160: b64e a73d b73e 96bd 650b 90bc 0555 8dbd
00000170: 1529 8bbd 35ff d93b 7286 803d 667a a83d
00000180: c2fc 083d 887b c23b 7d39 bb3d bd0b 23bd
00000190: 5d7a c83c 86cf a6bd c639 07be 9783 e5bc
000001a0: 2510 06be fb50 f3bd dfb4 f33c 8ffb 7dbc
000001b0: 6c2f 5ab9 d0a5 9cbd 464f 0cba db92 fc3d
000001c0: 4cf6 d03d 0880 ba3d d0ec cb3c c3b6 31bd
000001d0: fc13 5a3d 6f53 bbbd a26a 33bd e4c8 52bc
000001e0: a818 c1bc 4bf6 01be c830 45bd 2092 cf3d
000001f0: 8ea1 b6bd 2814 d7bd 6686 4a3c 8a41 483d
00000200: 63d3 71bd 1e48 083d e93d c53d 2576 e63d
00000210: d3f2 1c3d 654c 4b3a 5ca1 d33d e582 cbbd
00000220: 77e3 423d 7c3a 863c a7d8 d23d 339a 793d
00000230: a1ac 1dbc 5e47 edbc 1b8b a93d 958a 85ba
00000240: ed19 e9bd 6d39 fc3d 1c85 4dbd 32be 85bd
00000250: 21b7 28bd 0126 8b3d 0914 c23c 5397 093d
00000260: 010b 93bd 9a88 ec3b 7f4d ddbd c9fc 19bd
00000270: 05dd da3c 1e09 28bd ca9b a53d a82f 903b
00000280: 263f c53d b7d6 ef3d c2dc 1f3d c951 90bd
00000290: f220 c13d 8188 c63d cc61 96bd c453 8cbc
000002a0: 59d9 223c ffea dd3c db5e 2e3d 1a96 92bd
000002b0: 5d69 c4bd 0485 6cbd d59b 083e e3ae a0bd
000002c0: c9fa f9bd 7c61 e13d a77b 2fbd 3282 93bd
000002d0: 2e70 9abc 3aaa 863d 9fd8 d6bd 37fa 843c
000002e0: 3e69 00bd 6bca 76bd a4eb ad3d 7b75 323d
000002f0: c754 2abd abdd ba3d 87f0 c1bb fb9e ddbd
00000300: 19bf ce3d 4149 aebd 3391 71bb 00fc 57bd
00000310: 133b b03d 76a1 523c 01bb 67bd fe67 dfbd
00000320: 2dc0 55bb 2832 103d 0973 d33b b20c 11bd
00000330: 04db ea3d 49b7 7d3d bbdf e63c b086 be3d
00000340: 1ba0 e13d a273 ca3d 256d e03d d780 b3bb
00000350: f474 7e3d 2036 be3d c501 bb3d 206b b3bd
00000360: 6dbc 5cbc 77c6 e8bc a739 213d 02f7 e63d
00000370: 4531 3a3d 8fe7 8bbc 059d 873d 703e ec3d
00000380: 59b2 47bc 6db6 6c3c b53c e13d 4c18 55bd
00000390: bc37 843d eab9 4dbb 5bc9 e73d 0437 d13c
000003a0: 0473 cb3d 89fa 003d 08ce ea3d 8436 673c
000003b0: e659 ef3d 7545 7a3d 42d9 c5bd 9cd4 23bd
000003c0: 3d85 663d 4089 9c3b d4d7 b9bd 401e a53d
000003d0: 6c87 233c af6f e1bd f37f ebbc be17 17bd
000003e0: e208 b93d bead 02bd 4f92 64bd 0ccd 013e
000003f0: 0510 a5bd 550d 8f3d 0ce9 5dbd 482c 41bd
